node {
  name: "InputData/X"
  op: "Placeholder"
  attr {
    key: "dtype"
    value {
      type: DT_FLOAT
    }
  }
  attr {
    key: "shape"
    value {
      shape {
        dim {
          size: -1
        }
        dim {
          size: 1421
        }
      }
    }
  }
}
node {
  name: "FullyConnected/W/Initializer/truncated_normal/shape"
  op: "Const"
  attr {
    key: "_class"
    value {
      list {
        s: "loc:@FullyConnected/W"
      }
    }
  }
  attr {
    key: "dtype"
    value {
      type: DT_INT32
    }
  }
  attr {
    key: "value"
    value {
      tensor {
        dtype: DT_INT32
        tensor_shape {
          dim {
            size: 2
          }
        }
        tensor_content: "\215\005\000\000\010\000\000\000"
      }
    }
  }
}
node {
  name: "FullyConnected/W/Initializer/truncated_normal/mean"
  op: "Const"
  attr {
    key: "_class"
    value {
      list {
        s: "loc:@FullyConnected/W"
      }
    }
  }
  attr {
    key: "dtype"
    value {
      type: DT_FLOAT
    }
  }
  attr {
    key: "value"
    value {
      tensor {
        dtype: DT_FLOAT
        tensor_shape {
        }
        float_val: 0.0
      }
    }
  }
}
node {
  name: "FullyConnected/W/Initializer/truncated_normal/stddev"
  op: "Const"
  attr {
    key: "_class"
    value {
      list {
        s: "loc:@FullyConnected/W"
      }
    }
  }
  attr {
    key: "dtype"
    value {
      type: DT_FLOAT
    }
  }
  attr {
    key: "value"
    value {
      tensor {
        dtype: DT_FLOAT
        tensor_shape {
        }
        float_val: 0.019999999552965164
      }
    }
  }
}
node {
  name: "FullyConnected/W/Initializer/truncated_normal/TruncatedNormal"
  op: "TruncatedNormal"
  input: "FullyConnected/W/Initializer/truncated_normal/shape"
  attr {
    key: "T"
    value {
      type: DT_INT32
    }
  }
  attr {
    key: "_class"
    value {
      list {
        s: "loc:@FullyConnected/W"
      }
    }
  }
  attr {
    key: "dtype"
    value {
      type: DT_FLOAT
    }
  }
  attr {
    key: "seed"
    value {
      i: 0
    }
  }
  attr {
    key: "seed2"
    value {
      i: 0
    }
  }
}
node {
  name: "FullyConnected/W/Initializer/truncated_normal/mul"
  op: "Mul"
  input: "FullyConnected/W/Initializer/truncated_normal/TruncatedNormal"
  input: "FullyConnected/W/Initializer/truncated_normal/stddev"
  attr {
    key: "T"
    value {
      type: DT_FLOAT
    }
  }
  attr {
    key: "_class"
    value {
      list {
        s: "loc:@FullyConnected/W"
      }
    }
  }
}
node {
  name: "FullyConnected/W/Initializer/truncated_normal"
  op: "Add"
  input: "FullyConnected/W/Initializer/truncated_normal/mul"
  input: "FullyConnected/W/Initializer/truncated_normal/mean"
  attr {
    key: "T"
    value {
      type: DT_FLOAT
    }
  }
  attr {
    key: "_class"
    value {
      list {
        s: "loc:@FullyConnected/W"
      }
    }
  }
}
node {
  name: "FullyConnected/W"
  op: "VariableV2"
  attr {
    key: "_class"
    value {
      list {
        s: "loc:@FullyConnected/W"
      }
    }
  }
  attr {
    key: "container"
    value {
      s: ""
    }
  }
  attr {
    key: "dtype"
    value {
      type: DT_FLOAT
    }
  }
  attr {
    key: "shape"
    value {
      shape {
        dim {
          size: 1421
        }
        dim {
          size: 8
        }
      }
    }
  }
  attr {
    key: "shared_name"
    value {
      s: ""
    }
  }
}
node {
  name: "FullyConnected/W/Assign"
  op: "Assign"
  input: "FullyConnected/W"
  input: "FullyConnected/W/Initializer/truncated_normal"
  attr {
    key: "T"
    value {
      type: DT_FLOAT
    }
  }
  attr {
    key: "_class"
    value {
      list {
        s: "loc:@FullyConnected/W"
      }
    }
  }
  attr {
    key: "use_locking"
    value {
      b: true
    }
  }
  attr {
    key: "validate_shape"
    value {
      b: true
    }
  }
}
node {
  name: "FullyConnected/W/read"
  op: "Identity"
  input: "FullyConnected/W"
  attr {
    key: "T"
    value {
      type: DT_FLOAT
    }
  }
  attr {
    key: "_class"
    value {
      list {
        s: "loc:@FullyConnected/W"
      }
    }
  }
}
node {
  name: "FullyConnected/b/Initializer/Const"
  op: "Const"
  attr {
    key: "_class"
    value {
      list {
        s: "loc:@FullyConnected/b"
      }
    }
  }
  attr {
    key: "dtype"
    value {
      type: DT_FLOAT
    }
  }
  attr {
    key: "value"
    value {
      tensor {
        dtype: DT_FLOAT
        tensor_shape {
          dim {
            size: 8
          }
        }
        float_val: 0.0
      }
    }
  }
}
node {
  name: "FullyConnected/b"
  op: "VariableV2"
  attr {
    key: "_class"
    value {
      list {
        s: "loc:@FullyConnected/b"
      }
    }
  }
  attr {
    key: "container"
    value {
      s: ""
    }
  }
  attr {
    key: "dtype"
    value {
      type: DT_FLOAT
    }
  }
  attr {
    key: "shape"
    value {
      shape {
        dim {
          size: 8
        }
      }
    }
  }
  attr {
    key: "shared_name"
    value {
      s: ""
    }
  }
}
node {
  name: "FullyConnected/b/Assign"
  op: "Assign"
  input: "FullyConnected/b"
  input: "FullyConnected/b/Initializer/Const"
  attr {
    key: "T"
    value {
      type: DT_FLOAT
    }
  }
  attr {
    key: "_class"
    value {
      list {
        s: "loc:@FullyConnected/b"
      }
    }
  }
  attr {
    key: "use_locking"
    value {
      b: true
    }
  }
  attr {
    key: "validate_shape"
    value {
      b: true
    }
  }
}
node {
  name: "FullyConnected/b/read"
  op: "Identity"
  input: "FullyConnected/b"
  attr {
    key: "T"
    value {
      type: DT_FLOAT
    }
  }
  attr {
    key: "_class"
    value {
      list {
        s: "loc:@FullyConnected/b"
      }
    }
  }
}
node {
  name: "FullyConnected/MatMul"
  op: "MatMul"
  input: "InputData/X"
  input: "FullyConnected/W/read"
  attr {
    key: "T"
    value {
      type: DT_FLOAT
    }
  }
  attr {
    key: "transpose_a"
    value {
      b: false
    }
  }
  attr {
    key: "transpose_b"
    value {
      b: false
    }
  }
}
node {
  name: "FullyConnected/BiasAdd"
  op: "BiasAdd"
  input: "FullyConnected/MatMul"
  input: "FullyConnected/b/read"
  attr {
    key: "T"
    value {
      type: DT_FLOAT
    }
  }
  attr {
    key: "data_format"
    value {
      s: "NHWC"
    }
  }
}
node {
  name: "FullyConnected_1/W/Initializer/truncated_normal/shape"
  op: "Const"
  attr {
    key: "_class"
    value {
      list {
        s: "loc:@FullyConnected_1/W"
      }
    }
  }
  attr {
    key: "dtype"
    value {
      type: DT_INT32
    }
  }
  attr {
    key: "value"
    value {
      tensor {
        dtype: DT_INT32
        tensor_shape {
          dim {
            size: 2
          }
        }
        tensor_content: "\010\000\000\000\010\000\000\000"
      }
    }
  }
}
node {
  name: "FullyConnected_1/W/Initializer/truncated_normal/mean"
  op: "Const"
  attr {
    key: "_class"
    value {
      list {
        s: "loc:@FullyConnected_1/W"
      }
    }
  }
  attr {
    key: "dtype"
    value {
      type: DT_FLOAT
    }
  }
  attr {
    key: "value"
    value {
      tensor {
        dtype: DT_FLOAT
        tensor_shape {
        }
        float_val: 0.0
      }
    }
  }
}
node {
  name: "FullyConnected_1/W/Initializer/truncated_normal/stddev"
  op: "Const"
  attr {
    key: "_class"
    value {
      list {
        s: "loc:@FullyConnected_1/W"
      }
    }
  }
  attr {
    key: "dtype"
    value {
      type: DT_FLOAT
    }
  }
  attr {
    key: "value"
    value {
      tensor {
        dtype: DT_FLOAT
        tensor_shape {
        }
        float_val: 0.019999999552965164
      }
    }
  }
}
node {
  name: "FullyConnected_1/W/Initializer/truncated_normal/TruncatedNormal"
  op: "TruncatedNormal"
  input: "FullyConnected_1/W/Initializer/truncated_normal/shape"
  attr {
    key: "T"
    value {
      type: DT_INT32
    }
  }
  attr {
    key: "_class"
    value {
      list {
        s: "loc:@FullyConnected_1/W"
      }
    }
  }
  attr {
    key: "dtype"
    value {
      type: DT_FLOAT
    }
  }
  attr {
    key: "seed"
    value {
      i: 0
    }
  }
  attr {
    key: "seed2"
    value {
      i: 0
    }
  }
}
node {
  name: "FullyConnected_1/W/Initializer/truncated_normal/mul"
  op: "Mul"
  input: "FullyConnected_1/W/Initializer/truncated_normal/TruncatedNormal"
  input: "FullyConnected_1/W/Initializer/truncated_normal/stddev"
  attr {
    key: "T"
    value {
      type: DT_FLOAT
    }
  }
  attr {
    key: "_class"
    value {
      list {
        s: "loc:@FullyConnected_1/W"
      }
    }
  }
}
node {
  name: "FullyConnected_1/W/Initializer/truncated_normal"
  op: "Add"
  input: "FullyConnected_1/W/Initializer/truncated_normal/mul"
  input: "FullyConnected_1/W/Initializer/truncated_normal/mean"
  attr {
    key: "T"
    value {
      type: DT_FLOAT
    }
  }
  attr {
    key: "_class"
    value {
      list {
        s: "loc:@FullyConnected_1/W"
      }
    }
  }
}
node {
  name: "FullyConnected_1/W"
  op: "VariableV2"
  attr {
    key: "_class"
    value {
      list {
        s: "loc:@FullyConnected_1/W"
      }
    }
  }
  attr {
    key: "container"
    value {
      s: ""
    }
  }
  attr {
    key: "dtype"
    value {
      type: DT_FLOAT
    }
  }
  attr {
    key: "shape"
    value {
      shape {
        dim {
          size: 8
        }
        dim {
          size: 8
        }
      }
    }
  }
  attr {
    key: "shared_name"
    value {
      s: ""
    }
  }
}
node {
  name: "FullyConnected_1/W/Assign"
  op: "Assign"
  input: "FullyConnected_1/W"
  input: "FullyConnected_1/W/Initializer/truncated_normal"
  attr {
    key: "T"
    value {
      type: DT_FLOAT
    }
  }
  attr {
    key: "_class"
    value {
      list {
        s: "loc:@FullyConnected_1/W"
      }
    }
  }
  attr {
    key: "use_locking"
    value {
      b: true
    }
  }
  attr {
    key: "validate_shape"
    value {
      b: true
    }
  }
}
node {
  name: "FullyConnected_1/W/read"
  op: "Identity"
  input: "FullyConnected_1/W"
  attr {
    key: "T"
    value {
      type: DT_FLOAT
    }
  }
  attr {
    key: "_class"
    value {
      list {
        s: "loc:@FullyConnected_1/W"
      }
    }
  }
}
node {
  name: "FullyConnected_1/b/Initializer/Const"
  op: "Const"
  attr {
    key: "_class"
    value {
      list {
        s: "loc:@FullyConnected_1/b"
      }
    }
  }
  attr {
    key: "dtype"
    value {
      type: DT_FLOAT
    }
  }
  attr {
    key: "value"
    value {
      tensor {
        dtype: DT_FLOAT
        tensor_shape {
          dim {
            size: 8
          }
        }
        float_val: 0.0
      }
    }
  }
}
node {
  name: "FullyConnected_1/b"
  op: "VariableV2"
  attr {
    key: "_class"
    value {
      list {
        s: "loc:@FullyConnected_1/b"
      }
    }
  }
  attr {
    key: "container"
    value {
      s: ""
    }
  }
  attr {
    key: "dtype"
    value {
      type: DT_FLOAT
    }
  }
  attr {
    key: "shape"
    value {
      shape {
        dim {
          size: 8
        }
      }
    }
  }
  attr {
    key: "shared_name"
    value {
      s: ""
    }
  }
}
node {
  name: "FullyConnected_1/b/Assign"
  op: "Assign"
  input: "FullyConnected_1/b"
  input: "FullyConnected_1/b/Initializer/Const"
  attr {
    key: "T"
    value {
      type: DT_FLOAT
    }
  }
  attr {
    key: "_class"
    value {
      list {
        s: "loc:@FullyConnected_1/b"
      }
    }
  }
  attr {
    key: "use_locking"
    value {
      b: true
    }
  }
  attr {
    key: "validate_shape"
    value {
      b: true
    }
  }
}
node {
  name: "FullyConnected_1/b/read"
  op: "Identity"
  input: "FullyConnected_1/b"
  attr {
    key: "T"
    value {
      type: DT_FLOAT
    }
  }
  attr {
    key: "_class"
    value {
      list {
        s: "loc:@FullyConnected_1/b"
      }
    }
  }
}
node {
  name: "FullyConnected_1/MatMul"
  op: "MatMul"
  input: "FullyConnected/BiasAdd"
  input: "FullyConnected_1/W/read"
  attr {
    key: "T"
    value {
      type: DT_FLOAT
    }
  }
  attr {
    key: "transpose_a"
    value {
      b: false
    }
  }
  attr {
    key: "transpose_b"
    value {
      b: false
    }
  }
}
node {
  name: "FullyConnected_1/BiasAdd"
  op: "BiasAdd"
  input: "FullyConnected_1/MatMul"
  input: "FullyConnected_1/b/read"
  attr {
    key: "T"
    value {
      type: DT_FLOAT
    }
  }
  attr {
    key: "data_format"
    value {
      s: "NHWC"
    }
  }
}
node {
  name: "FullyConnected_2/W/Initializer/truncated_normal/shape"
  op: "Const"
  attr {
    key: "_class"
    value {
      list {
        s: "loc:@FullyConnected_2/W"
      }
    }
  }
  attr {
    key: "dtype"
    value {
      type: DT_INT32
    }
  }
  attr {
    key: "value"
    value {
      tensor {
        dtype: DT_INT32
        tensor_shape {
          dim {
            size: 2
          }
        }
        tensor_content: "\010\000\000\0003\000\000\000"
      }
    }
  }
}
node {
  name: "FullyConnected_2/W/Initializer/truncated_normal/mean"
  op: "Const"
  attr {
    key: "_class"
    value {
      list {
        s: "loc:@FullyConnected_2/W"
      }
    }
  }
  attr {
    key: "dtype"
    value {
      type: DT_FLOAT
    }
  }
  attr {
    key: "value"
    value {
      tensor {
        dtype: DT_FLOAT
        tensor_shape {
        }
        float_val: 0.0
      }
    }
  }
}
node {
  name: "FullyConnected_2/W/Initializer/truncated_normal/stddev"
  op: "Const"
  attr {
    key: "_class"
    value {
      list {
        s: "loc:@FullyConnected_2/W"
      }
    }
  }
  attr {
    key: "dtype"
    value {
      type: DT_FLOAT
    }
  }
  attr {
    key: "value"
    value {
      tensor {
        dtype: DT_FLOAT
        tensor_shape {
        }
        float_val: 0.019999999552965164
      }
    }
  }
}
node {
  name: "FullyConnected_2/W/Initializer/truncated_normal/TruncatedNormal"
  op: "TruncatedNormal"
  input: "FullyConnected_2/W/Initializer/truncated_normal/shape"
  attr {
    key: "T"
    value {
      type: DT_INT32
    }
  }
  attr {
    key: "_class"
    value {
      list {
        s: "loc:@FullyConnected_2/W"
      }
    }
  }
  attr {
    key: "dtype"
    value {
      type: DT_FLOAT
    }
  }
  attr {
    key: "seed"
    value {
      i: 0
    }
  }
  attr {
    key: "seed2"
    value {
      i: 0
    }
  }
}
node {
  name: "FullyConnected_2/W/Initializer/truncated_normal/mul"
  op: "Mul"
  input: "FullyConnected_2/W/Initializer/truncated_normal/TruncatedNormal"
  input: "FullyConnected_2/W/Initializer/truncated_normal/stddev"
  attr {
    key: "T"
    value {
      type: DT_FLOAT
    }
  }
  attr {
    key: "_class"
    value {
      list {
        s: "loc:@FullyConnected_2/W"
      }
    }
  }
}
node {
  name: "FullyConnected_2/W/Initializer/truncated_normal"
  op: "Add"
  input: "FullyConnected_2/W/Initializer/truncated_normal/mul"
  input: "FullyConnected_2/W/Initializer/truncated_normal/mean"
  attr {
    key: "T"
    value {
      type: DT_FLOAT
    }
  }
  attr {
    key: "_class"
    value {
      list {
        s: "loc:@FullyConnected_2/W"
      }
    }
  }
}
node {
  name: "FullyConnected_2/W"
  op: "VariableV2"
  attr {
    key: "_class"
    value {
      list {
        s: "loc:@FullyConnected_2/W"
      }
    }
  }
  attr {
    key: "container"
    value {
      s: ""
    }
  }
  attr {
    key: "dtype"
    value {
      type: DT_FLOAT
    }
  }
  attr {
    key: "shape"
    value {
      shape {
        dim {
          size: 8
        }
        dim {
          size: 51
        }
      }
    }
  }
  attr {
    key: "shared_name"
    value {
      s: ""
    }
  }
}
node {
  name: "FullyConnected_2/W/Assign"
  op: "Assign"
  input: "FullyConnected_2/W"
  input: "FullyConnected_2/W/Initializer/truncated_normal"
  attr {
    key: "T"
    value {
      type: DT_FLOAT
    }
  }
  attr {
    key: "_class"
    value {
      list {
        s: "loc:@FullyConnected_2/W"
      }
    }
  }
  attr {
    key: "use_locking"
    value {
      b: true
    }
  }
  attr {
    key: "validate_shape"
    value {
      b: true
    }
  }
}
node {
  name: "FullyConnected_2/W/read"
  op: "Identity"
  input: "FullyConnected_2/W"
  attr {
    key: "T"
    value {
      type: DT_FLOAT
    }
  }
  attr {
    key: "_class"
    value {
      list {
        s: "loc:@FullyConnected_2/W"
      }
    }
  }
}
node {
  name: "FullyConnected_2/b/Initializer/Const"
  op: "Const"
  attr {
    key: "_class"
    value {
      list {
        s: "loc:@FullyConnected_2/b"
      }
    }
  }
  attr {
    key: "dtype"
    value {
      type: DT_FLOAT
    }
  }
  attr {
    key: "value"
    value {
      tensor {
        dtype: DT_FLOAT
        tensor_shape {
          dim {
            size: 51
          }
        }
        float_val: 0.0
      }
    }
  }
}
node {
  name: "FullyConnected_2/b"
  op: "VariableV2"
  attr {
    key: "_class"
    value {
      list {
        s: "loc:@FullyConnected_2/b"
      }
    }
  }
  attr {
    key: "container"
    value {
      s: ""
    }
  }
  attr {
    key: "dtype"
    value {
      type: DT_FLOAT
    }
  }
  attr {
    key: "shape"
    value {
      shape {
        dim {
          size: 51
        }
      }
    }
  }
  attr {
    key: "shared_name"
    value {
      s: ""
    }
  }
}
node {
  name: "FullyConnected_2/b/Assign"
  op: "Assign"
  input: "FullyConnected_2/b"
  input: "FullyConnected_2/b/Initializer/Const"
  attr {
    key: "T"
    value {
      type: DT_FLOAT
    }
  }
  attr {
    key: "_class"
    value {
      list {
        s: "loc:@FullyConnected_2/b"
      }
    }
  }
  attr {
    key: "use_locking"
    value {
      b: true
    }
  }
  attr {
    key: "validate_shape"
    value {
      b: true
    }
  }
}
node {
  name: "FullyConnected_2/b/read"
  op: "Identity"
  input: "FullyConnected_2/b"
  attr {
    key: "T"
    value {
      type: DT_FLOAT
    }
  }
  attr {
    key: "_class"
    value {
      list {
        s: "loc:@FullyConnected_2/b"
      }
    }
  }
}
node {
  name: "FullyConnected_2/MatMul"
  op: "MatMul"
  input: "FullyConnected_1/BiasAdd"
  input: "FullyConnected_2/W/read"
  attr {
    key: "T"
    value {
      type: DT_FLOAT
    }
  }
  attr {
    key: "transpose_a"
    value {
      b: false
    }
  }
  attr {
    key: "transpose_b"
    value {
      b: false
    }
  }
}
node {
  name: "FullyConnected_2/BiasAdd"
  op: "BiasAdd"
  input: "FullyConnected_2/MatMul"
  input: "FullyConnected_2/b/read"
  attr {
    key: "T"
    value {
      type: DT_FLOAT
    }
  }
  attr {
    key: "data_format"
    value {
      s: "NHWC"
    }
  }
}
node {
  name: "FullyConnected_2/Softmax"
  op: "Softmax"
  input: "FullyConnected_2/BiasAdd"
  attr {
    key: "T"
    value {
      type: DT_FLOAT
    }
  }
}
node {
  name: "TargetsData/Y"
  op: "Placeholder"
  attr {
    key: "dtype"
    value {
      type: DT_FLOAT
    }
  }
  attr {
    key: "shape"
    value {
      shape {
        dim {
          size: -1
        }
        dim {
          size: 51
        }
      }
    }
  }
}
node {
  name: "Accuracy/ArgMax/dimension"
  op: "Const"
  attr {
    key: "dtype"
    value {
      type: DT_INT32
    }
  }
  attr {
    key: "value"
    value {
      tensor {
        dtype: DT_INT32
        tensor_shape {
        }
        int_val: 1
      }
    }
  }
}
node {
  name: "Accuracy/ArgMax"
  op: "ArgMax"
  input: "FullyConnected_2/Softmax"
  input: "Accuracy/ArgMax/dimension"
  attr {
    key: "T"
    value {
      type: DT_FLOAT
    }
  }
  attr {
    key: "Tidx"
    value {
      type: DT_INT32
    }
  }
  attr {
    key: "output_type"
    value {
      type: DT_INT64
    }
  }
}
node {
  name: "Accuracy/ArgMax_1/dimension"
  op: "Const"
  attr {
    key: "dtype"
    value {
      type: DT_INT32
    }
  }
  attr {
    key: "value"
    value {
      tensor {
        dtype: DT_INT32
        tensor_shape {
        }
        int_val: 1
      }
    }
  }
}
node {
  name: "Accuracy/ArgMax_1"
  op: "ArgMax"
  input: "TargetsData/Y"
  input: "Accuracy/ArgMax_1/dimension"
  attr {
    key: "T"
    value {
      type: DT_FLOAT
    }
  }
  attr {
    key: "Tidx"
    value {
      type: DT_INT32
    }
  }
  attr {
    key: "output_type"
    value {
      type: DT_INT64
    }
  }
}
node {
  name: "Accuracy/Equal"
  op: "Equal"
  input: "Accuracy/ArgMax"
  input: "Accuracy/ArgMax_1"
  attr {
    key: "T"
    value {
      type: DT_INT64
    }
  }
}
node {
  name: "Accuracy/Cast"
  op: "Cast"
  input: "Accuracy/Equal"
  attr {
    key: "DstT"
    value {
      type: DT_FLOAT
    }
  }
  attr {
    key: "SrcT"
    value {
      type: DT_BOOL
    }
  }
}
node {
  name: "Accuracy/Const"
  op: "Const"
  attr {
    key: "dtype"
    value {
      type: DT_INT32
    }
  }
  attr {
    key: "value"
    value {
      tensor {
        dtype: DT_INT32
        tensor_shape {
          dim {
            size: 1
          }
        }
        int_val: 0
      }
    }
  }
}
node {
  name: "Accuracy/Mean"
  op: "Mean"
  input: "Accuracy/Cast"
  input: "Accuracy/Const"
  attr {
    key: "T"
    value {
      type: DT_FLOAT
    }
  }
  attr {
    key: "Tidx"
    value {
      type: DT_INT32
    }
  }
  attr {
    key: "keep_dims"
    value {
      b: false
    }
  }
}
node {
  name: "Crossentropy/Sum/reduction_indices"
  op: "Const"
  attr {
    key: "dtype"
    value {
      type: DT_INT32
    }
  }
  attr {
    key: "value"
    value {
      tensor {
        dtype: DT_INT32
        tensor_shape {
        }
        int_val: 1
      }
    }
  }
}
node {
  name: "Crossentropy/Sum"
  op: "Sum"
  input: "FullyConnected_2/Softmax"
  input: "Crossentropy/Sum/reduction_indices"
  attr {
    key: "T"
    value {
      type: DT_FLOAT
    }
  }
  attr {
    key: "Tidx"
    value {
      type: DT_INT32
    }
  }
  attr {
    key: "keep_dims"
    value {
      b: true
    }
  }
}
node {
  name: "Crossentropy/truediv"
  op: "RealDiv"
  input: "FullyConnected_2/Softmax"
  input: "Crossentropy/Sum"
  attr {
    key: "T"
    value {
      type: DT_FLOAT
    }
  }
}
node {
  name: "Crossentropy/Cast/x"
  op: "Const"
  attr {
    key: "dtype"
    value {
      type: DT_FLOAT
    }
  }
  attr {
    key: "value"
    value {
      tensor {
        dtype: DT_FLOAT
        tensor_shape {
        }
        float_val: 1.000000013351432e-10
      }
    }
  }
}
node {
  name: "Crossentropy/Cast_1/x"
  op: "Const"
  attr {
    key: "dtype"
    value {
      type: DT_FLOAT
    }
  }
  attr {
    key: "value"
    value {
      tensor {
        dtype: DT_FLOAT
        tensor_shape {
        }
        float_val: 1.0
      }
    }
  }
}
node {
  name: "Crossentropy/clip_by_value/Minimum"
  op: "Minimum"
  input: "Crossentropy/truediv"
  input: "Crossentropy/Cast_1/x"
  attr {
    key: "T"
    value {
      type: DT_FLOAT
    }
  }
}
node {
  name: "Crossentropy/clip_by_value"
  op: "Maximum"
  input: "Crossentropy/clip_by_value/Minimum"
  input: "Crossentropy/Cast/x"
  attr {
    key: "T"
    value {
      type: DT_FLOAT
    }
  }
}
node {
  name: "Crossentropy/Log"
  op: "Log"
  input: "Crossentropy/clip_by_value"
  attr {
    key: "T"
    value {
      type: DT_FLOAT
    }
  }
}
node {
  name: "Crossentropy/mul"
  op: "Mul"
  input: "TargetsData/Y"
  input: "Crossentropy/Log"
  attr {
    key: "T"
    value {
      type: DT_FLOAT
    }
  }
}
node {
  name: "Crossentropy/Sum_1/reduction_indices"
  op: "Const"
  attr {
    key: "dtype"
    value {
      type: DT_INT32
    }
  }
  attr {
    key: "value"
    value {
      tensor {
        dtype: DT_INT32
        tensor_shape {
        }
        int_val: 1
      }
    }
  }
}
node {
  name: "Crossentropy/Sum_1"
  op: "Sum"
  input: "Crossentropy/mul"
  input: "Crossentropy/Sum_1/reduction_indices"
  attr {
    key: "T"
    value {
      type: DT_FLOAT
    }
  }
  attr {
    key: "Tidx"
    value {
      type: DT_INT32
    }
  }
  attr {
    key: "keep_dims"
    value {
      b: false
    }
  }
}
node {
  name: "Crossentropy/Neg"
  op: "Neg"
  input: "Crossentropy/Sum_1"
  attr {
    key: "T"
    value {
      type: DT_FLOAT
    }
  }
}
node {
  name: "Crossentropy/Const"
  op: "Const"
  attr {
    key: "dtype"
    value {
      type: DT_INT32
    }
  }
  attr {
    key: "value"
    value {
      tensor {
        dtype: DT_INT32
        tensor_shape {
          dim {
            size: 1
          }
        }
        int_val: 0
      }
    }
  }
}
node {
  name: "Crossentropy/Mean"
  op: "Mean"
  input: "Crossentropy/Neg"
  input: "Crossentropy/Const"
  attr {
    key: "T"
    value {
      type: DT_FLOAT
    }
  }
  attr {
    key: "Tidx"
    value {
      type: DT_INT32
    }
  }
  attr {
    key: "keep_dims"
    value {
      b: false
    }
  }
}
node {
  name: "Training_step/initial_value"
  op: "Const"
  attr {
    key: "dtype"
    value {
      type: DT_FLOAT
    }
  }
  attr {
    key: "value"
    value {
      tensor {
        dtype: DT_FLOAT
        tensor_shape {
        }
        float_val: 0.0
      }
    }
  }
}
node {
  name: "Training_step"
  op: "VariableV2"
  attr {
    key: "container"
    value {
      s: ""
    }
  }
  attr {
    key: "dtype"
    value {
      type: DT_FLOAT
    }
  }
  attr {
    key: "shape"
    value {
      shape {
      }
    }
  }
  attr {
    key: "shared_name"
    value {
      s: ""
    }
  }
}
node {
  name: "Training_step/Assign"
  op: "Assign"
  input: "Training_step"
  input: "Training_step/initial_value"
  attr {
    key: "T"
    value {
      type: DT_FLOAT
    }
  }
  attr {
    key: "_class"
    value {
      list {
        s: "loc:@Training_step"
      }
    }
  }
  attr {
    key: "use_locking"
    value {
      b: true
    }
  }
  attr {
    key: "validate_shape"
    value {
      b: true
    }
  }
}
node {
  name: "Training_step/read"
  op: "Identity"
  input: "Training_step"
  attr {
    key: "T"
    value {
      type: DT_FLOAT
    }
  }
  attr {
    key: "_class"
    value {
      list {
        s: "loc:@Training_step"
      }
    }
  }
}
node {
  name: "is_training/Initializer/Const"
  op: "Const"
  attr {
    key: "_class"
    value {
      list {
        s: "loc:@is_training"
      }
    }
  }
  attr {
    key: "dtype"
    value {
      type: DT_BOOL
    }
  }
  attr {
    key: "value"
    value {
      tensor {
        dtype: DT_BOOL
        tensor_shape {
        }
        bool_val: false
      }
    }
  }
}
node {
  name: "is_training"
  op: "VariableV2"
  attr {
    key: "_class"
    value {
      list {
        s: "loc:@is_training"
      }
    }
  }
  attr {
    key: "container"
    value {
      s: ""
    }
  }
  attr {
    key: "dtype"
    value {
      type: DT_BOOL
    }
  }
  attr {
    key: "shape"
    value {
      shape {
      }
    }
  }
  attr {
    key: "shared_name"
    value {
      s: ""
    }
  }
}
node {
  name: "is_training/Assign"
  op: "Assign"
  input: "is_training"
  input: "is_training/Initializer/Const"
  attr {
    key: "T"
    value {
      type: DT_BOOL
    }
  }
  attr {
    key: "_class"
    value {
      list {
        s: "loc:@is_training"
      }
    }
  }
  attr {
    key: "use_locking"
    value {
      b: true
    }
  }
  attr {
    key: "validate_shape"
    value {
      b: true
    }
  }
}
node {
  name: "is_training/read"
  op: "Identity"
  input: "is_training"
  attr {
    key: "T"
    value {
      type: DT_BOOL
    }
  }
  attr {
    key: "_class"
    value {
      list {
        s: "loc:@is_training"
      }
    }
  }
}
node {
  name: "Assign/value"
  op: "Const"
  attr {
    key: "dtype"
    value {
      type: DT_BOOL
    }
  }
  attr {
    key: "value"
    value {
      tensor {
        dtype: DT_BOOL
        tensor_shape {
        }
        bool_val: true
      }
    }
  }
}
node {
  name: "Assign"
  op: "Assign"
  input: "is_training"
  input: "Assign/value"
  attr {
    key: "T"
    value {
      type: DT_BOOL
    }
  }
  attr {
    key: "_class"
    value {
      list {
        s: "loc:@is_training"
      }
    }
  }
  attr {
    key: "use_locking"
    value {
      b: true
    }
  }
  attr {
    key: "validate_shape"
    value {
      b: true
    }
  }
}
node {
  name: "Assign_1/value"
  op: "Const"
  attr {
    key: "dtype"
    value {
      type: DT_BOOL
    }
  }
  attr {
    key: "value"
    value {
      tensor {
        dtype: DT_BOOL
        tensor_shape {
        }
        bool_val: false
      }
    }
  }
}
node {
  name: "Assign_1"
  op: "Assign"
  input: "is_training"
  input: "Assign_1/value"
  attr {
    key: "T"
    value {
      type: DT_BOOL
    }
  }
  attr {
    key: "_class"
    value {
      list {
        s: "loc:@is_training"
      }
    }
  }
  attr {
    key: "use_locking"
    value {
      b: true
    }
  }
  attr {
    key: "validate_shape"
    value {
      b: true
    }
  }
}
node {
  name: "Global_Step/initial_value"
  op: "Const"
  attr {
    key: "dtype"
    value {
      type: DT_FLOAT
    }
  }
  attr {
    key: "value"
    value {
      tensor {
        dtype: DT_FLOAT
        tensor_shape {
        }
        float_val: 0.0
      }
    }
  }
}
node {
  name: "Global_Step"
  op: "VariableV2"
  attr {
    key: "container"
    value {
      s: ""
    }
  }
  attr {
    key: "dtype"
    value {
      type: DT_FLOAT
    }
  }
  attr {
    key: "shape"
    value {
      shape {
      }
    }
  }
  attr {
    key: "shared_name"
    value {
      s: ""
    }
  }
}
node {
  name: "Global_Step/Assign"
  op: "Assign"
  input: "Global_Step"
  input: "Global_Step/initial_value"
  attr {
    key: "T"
    value {
      type: DT_FLOAT
    }
  }
  attr {
    key: "_class"
    value {
      list {
        s: "loc:@Global_Step"
      }
    }
  }
  attr {
    key: "use_locking"
    value {
      b: true
    }
  }
  attr {
    key: "validate_shape"
    value {
      b: true
    }
  }
}
node {
  name: "Global_Step/read"
  op: "Identity"
  input: "Global_Step"
  attr {
    key: "T"
    value {
      type: DT_FLOAT
    }
  }
  attr {
    key: "_class"
    value {
      list {
        s: "loc:@Global_Step"
      }
    }
  }
}
node {
  name: "Add/y"
  op: "Const"
  attr {
    key: "dtype"
    value {
      type: DT_FLOAT
    }
  }
  attr {
    key: "value"
    value {
      tensor {
        dtype: DT_FLOAT
        tensor_shape {
        }
        float_val: 1.0
      }
    }
  }
}
node {
  name: "Add"
  op: "Add"
  input: "Global_Step/read"
  input: "Add/y"
  attr {
    key: "T"
    value {
      type: DT_FLOAT
    }
  }
}
node {
  name: "Assign_2"
  op: "Assign"
  input: "Global_Step"
  input: "Add"
  attr {
    key: "T"
    value {
      type: DT_FLOAT
    }
  }
  attr {
    key: "_class"
    value {
      list {
        s: "loc:@Global_Step"
      }
    }
  }
  attr {
    key: "use_locking"
    value {
      b: true
    }
  }
  attr {
    key: "validate_shape"
    value {
      b: true
    }
  }
}
node {
  name: "val_loss/initial_value"
  op: "Const"
  attr {
    key: "dtype"
    value {
      type: DT_FLOAT
    }
  }
  attr {
    key: "value"
    value {
      tensor {
        dtype: DT_FLOAT
        tensor_shape {
        }
        float_val: 0.0
      }
    }
  }
}
node {
  name: "val_loss"
  op: "VariableV2"
  attr {
    key: "container"
    value {
      s: ""
    }
  }
  attr {
    key: "dtype"
    value {
      type: DT_FLOAT
    }
  }
  attr {
    key: "shape"
    value {
      shape {
      }
    }
  }
  attr {
    key: "shared_name"
    value {
      s: ""
    }
  }
}
node {
  name: "val_loss/Assign"
  op: "Assign"
  input: "val_loss"
  input: "val_loss/initial_value"
  attr {
    key: "T"
    value {
      type: DT_FLOAT
    }
  }
  attr {
    key: "_class"
    value {
      list {
        s: "loc:@val_loss"
      }
    }
  }
  attr {
    key: "use_locking"
    value {
      b: true
    }
  }
  attr {
    key: "validate_shape"
    value {
      b: true
    }
  }
}
node {
  name: "val_loss/read"
  op: "Identity"
  input: "val_loss"
  attr {
    key: "T"
    value {
      type: DT_FLOAT
    }
  }
  attr {
    key: "_class"
    value {
      list {
        s: "loc:@val_loss"
      }
    }
  }
}
node {
  name: "val_acc/initial_value"
  op: "Const"
  attr {
    key: "dtype"
    value {
      type: DT_FLOAT
    }
  }
  attr {
    key: "value"
    value {
      tensor {
        dtype: DT_FLOAT
        tensor_shape {
        }
        float_val: 0.0
      }
    }
  }
}
node {
  name: "val_acc"
  op: "VariableV2"
  attr {
    key: "container"
    value {
      s: ""
    }
  }
  attr {
    key: "dtype"
    value {
      type: DT_FLOAT
    }
  }
  attr {
    key: "shape"
    value {
      shape {
      }
    }
  }
  attr {
    key: "shared_name"
    value {
      s: ""
    }
  }
}
node {
  name: "val_acc/Assign"
  op: "Assign"
  input: "val_acc"
  input: "val_acc/initial_value"
  attr {
    key: "T"
    value {
      type: DT_FLOAT
    }
  }
  attr {
    key: "_class"
    value {
      list {
        s: "loc:@val_acc"
      }
    }
  }
  attr {
    key: "use_locking"
    value {
      b: true
    }
  }
  attr {
    key: "validate_shape"
    value {
      b: true
    }
  }
}
node {
  name: "val_acc/read"
  op: "Identity"
  input: "val_acc"
  attr {
    key: "T"
    value {
      type: DT_FLOAT
    }
  }
  attr {
    key: "_class"
    value {
      list {
        s: "loc:@val_acc"
      }
    }
  }
}
node {
  name: "placeholder/val_loss"
  op: "Placeholder"
  attr {
    key: "dtype"
    value {
      type: DT_FLOAT
    }
  }
  attr {
    key: "shape"
    value {
      shape {
        unknown_rank: true
      }
    }
  }
}
node {
  name: "placeholder/val_acc"
  op: "Placeholder"
  attr {
    key: "dtype"
    value {
      type: DT_FLOAT
    }
  }
  attr {
    key: "shape"
    value {
      shape {
        unknown_rank: true
      }
    }
  }
}
node {
  name: "assign/val_loss"
  op: "Assign"
  input: "val_loss"
  input: "placeholder/val_loss"
  attr {
    key: "T"
    value {
      type: DT_FLOAT
    }
  }
  attr {
    key: "_class"
    value {
      list {
        s: "loc:@val_loss"
      }
    }
  }
  attr {
    key: "use_locking"
    value {
      b: true
    }
  }
  attr {
    key: "validate_shape"
    value {
      b: true
    }
  }
}
node {
  name: "assign/val_acc"
  op: "Assign"
  input: "val_acc"
  input: "placeholder/val_acc"
  attr {
    key: "T"
    value {
      type: DT_FLOAT
    }
  }
  attr {
    key: "_class"
    value {
      list {
        s: "loc:@val_acc"
      }
    }
  }
  attr {
    key: "use_locking"
    value {
      b: true
    }
  }
  attr {
    key: "validate_shape"
    value {
      b: true
    }
  }
}
node {
  name: "Accuracy/Mean/moving_avg/Initializer/zeros"
  op: "Const"
  attr {
    key: "_class"
    value {
      list {
        s: "loc:@Accuracy/Mean/moving_avg"
      }
    }
  }
  attr {
    key: "dtype"
    value {
      type: DT_FLOAT
    }
  }
  attr {
    key: "value"
    value {
      tensor {
        dtype: DT_FLOAT
        tensor_shape {
        }
        float_val: 0.0
      }
    }
  }
}
node {
  name: "Accuracy/Mean/moving_avg"
  op: "VariableV2"
  attr {
    key: "_class"
    value {
      list {
        s: "loc:@Accuracy/Mean/moving_avg"
      }
    }
  }
  attr {
    key: "container"
    value {
      s: ""
    }
  }
  attr {
    key: "dtype"
    value {
      type: DT_FLOAT
    }
  }
  attr {
    key: "shape"
    value {
      shape {
      }
    }
  }
  attr {
    key: "shared_name"
    value {
      s: ""
    }
  }
}
node {
  name: "Accuracy/Mean/moving_avg/Assign"
  op: "Assign"
  input: "Accuracy/Mean/moving_avg"
  input: "Accuracy/Mean/moving_avg/Initializer/zeros"
  attr {
    key: "T"
    value {
      type: DT_FLOAT
    }
  }
  attr {
    key: "_class"
    value {
      list {
        s: "loc:@Accuracy/Mean/moving_avg"
      }
    }
  }
  attr {
    key: "use_locking"
    value {
      b: true
    }
  }
  attr {
    key: "validate_shape"
    value {
      b: true
    }
  }
}
node {
  name: "Accuracy/Mean/moving_avg/read"
  op: "Identity"
  input: "Accuracy/Mean/moving_avg"
  attr {
    key: "T"
    value {
      type: DT_FLOAT
    }
  }
  attr {
    key: "_class"
    value {
      list {
        s: "loc:@Accuracy/Mean/moving_avg"
      }
    }
  }
}
node {
  name: "moving_avg/decay"
  op: "Const"
  attr {
    key: "dtype"
    value {
      type: DT_FLOAT
    }
  }
  attr {
    key: "value"
    value {
      tensor {
        dtype: DT_FLOAT
        tensor_shape {
        }
        float_val: 0.8999999761581421
      }
    }
  }
}
node {
  name: "moving_avg/add/x"
  op: "Const"
  attr {
    key: "dtype"
    value {
      type: DT_FLOAT
    }
  }
  attr {
    key: "value"
    value {
      tensor {
        dtype: DT_FLOAT
        tensor_shape {
        }
        float_val: 1.0
      }
    }
  }
}
node {
  name: "moving_avg/add"
  op: "Add"
  input: "moving_avg/add/x"
  input: "Training_step/read"
  attr {
    key: "T"
    value {
      type: DT_FLOAT
    }
  }
}
node {
  name: "moving_avg/add_1/x"
  op: "Const"
  attr {
    key: "dtype"
    value {
      type: DT_FLOAT
    }
  }
  attr {
    key: "value"
    value {
      tensor {
        dtype: DT_FLOAT
        tensor_shape {
        }
        float_val: 10.0
      }
    }
  }
}
node {
  name: "moving_avg/add_1"
  op: "Add"
  input: "moving_avg/add_1/x"
  input: "Training_step/read"
  attr {
    key: "T"
    value {
      type: DT_FLOAT
    }
  }
}
node {
  name: "moving_avg/truediv"
  op: "RealDiv"
  input: "moving_avg/add"
  input: "moving_avg/add_1"
  attr {
    key: "T"
    value {
      type: DT_FLOAT
    }
  }
}
node {
  name: "moving_avg/Minimum"
  op: "Minimum"
  input: "moving_avg/decay"
  input: "moving_avg/truediv"
  attr {
    key: "T"
    value {
      type: DT_FLOAT
    }
  }
}
node {
  name: "moving_avg/AssignMovingAvg/sub/x"
  op: "Const"
  attr {
    key: "_class"
    value {
      list {
        s: "loc:@Accuracy/Mean/moving_avg"
      }
    }
  }
  attr {
    key: "dtype"
    value {
      type: DT_FLOAT
    }
  }
  attr {
    key: "value"
    value {
      tensor {
        dtype: DT_FLOAT
        tensor_shape {
        }
        float_val: 1.0
      }
    }
  }
}
node {
  name: "moving_avg/AssignMovingAvg/sub"
  op: "Sub"
  input: "moving_avg/AssignMovingAvg/sub/x"
  input: "moving_avg/Minimum"
  attr {
    key: "T"
    value {
      type: DT_FLOAT
    }
  }
  attr {
    key: "_class"
    value {
      list {
        s: "loc:@Accuracy/Mean/moving_avg"
      }
    }
  }
}
node {
  name: "moving_avg/AssignMovingAvg/sub_1"
  op: "Sub"
  input: "Accuracy/Mean/moving_avg/read"
  input: "Accuracy/Mean"
  attr {
    key: "T"
    value {
      type: DT_FLOAT
    }
  }
  attr {
    key: "_class"
    value {
      list {
        s: "loc:@Accuracy/Mean/moving_avg"
      }
    }
  }
}
node {
  name: "moving_avg/AssignMovingAvg/mul"
  op: "Mul"
  input: "moving_avg/AssignMovingAvg/sub_1"
  input: "moving_avg/AssignMovingAvg/sub"
  attr {
    key: "T"
    value {
      type: DT_FLOAT
    }
  }
  attr {
    key: "_class"
    value {
      list {
        s: "loc:@Accuracy/Mean/moving_avg"
      }
    }
  }
}
node {
  name: "moving_avg/AssignMovingAvg"
  op: "AssignSub"
  input: "Accuracy/Mean/moving_avg"
  input: "moving_avg/AssignMovingAvg/mul"
  attr {
    key: "T"
    value {
      type: DT_FLOAT
    }
  }
  attr {
    key: "_class"
    value {
      list {
        s: "loc:@Accuracy/Mean/moving_avg"
      }
    }
  }
  attr {
    key: "use_locking"
    value {
      b: false
    }
  }
}
node {
  name: "moving_avg"
  op: "NoOp"
  input: "^moving_avg/AssignMovingAvg"
}
node {
  name: "Adam/Total_Loss"
  op: "Identity"
  input: "Crossentropy/Mean"
  attr {
    key: "T"
    value {
      type: DT_FLOAT
    }
  }
}
node {
  name: "Crossentropy/Mean/moving_avg/Initializer/zeros"
  op: "Const"
  attr {
    key: "_class"
    value {
      list {
        s: "loc:@Crossentropy/Mean/moving_avg"
      }
    }
  }
  attr {
    key: "dtype"
    value {
      type: DT_FLOAT
    }
  }
  attr {
    key: "value"
    value {
      tensor {
        dtype: DT_FLOAT
        tensor_shape {
        }
        float_val: 0.0
      }
    }
  }
}
node {
  name: "Crossentropy/Mean/moving_avg"
  op: "VariableV2"
  attr {
    key: "_class"
    value {
      list {
        s: "loc:@Crossentropy/Mean/moving_avg"
      }
    }
  }
  attr {
    key: "container"
    value {
      s: ""
    }
  }
  attr {
    key: "dtype"
    value {
      type: DT_FLOAT
    }
  }
  attr {
    key: "shape"
    value {
      shape {
      }
    }
  }
  attr {
    key: "shared_name"
    value {
      s: ""
    }
  }
}
node {
  name: "Crossentropy/Mean/moving_avg/Assign"
  op: "Assign"
  input: "Crossentropy/Mean/moving_avg"
  input: "Crossentropy/Mean/moving_avg/Initializer/zeros"
  attr {
    key: "T"
    value {
      type: DT_FLOAT
    }
  }
  attr {
    key: "_class"
    value {
      list {
        s: "loc:@Crossentropy/Mean/moving_avg"
      }
    }
  }
  attr {
    key: "use_locking"
    value {
      b: true
    }
  }
  attr {
    key: "validate_shape"
    value {
      b: true
    }
  }
}
node {
  name: "Crossentropy/Mean/moving_avg/read"
  op: "Identity"
  input: "Crossentropy/Mean/moving_avg"
  attr {
    key: "T"
    value {
      type: DT_FLOAT
    }
  }
  attr {
    key: "_class"
    value {
      list {
        s: "loc:@Crossentropy/Mean/moving_avg"
      }
    }
  }
}
node {
  name: "Adam/moving_avg/decay"
  op: "Const"
  attr {
    key: "dtype"
    value {
      type: DT_FLOAT
    }
  }
  attr {
    key: "value"
    value {
      tensor {
        dtype: DT_FLOAT
        tensor_shape {
        }
        float_val: 0.8999999761581421
      }
    }
  }
}
node {
  name: "Adam/moving_avg/add/x"
  op: "Const"
  attr {
    key: "dtype"
    value {
      type: DT_FLOAT
    }
  }
  attr {
    key: "value"
    value {
      tensor {
        dtype: DT_FLOAT
        tensor_shape {
        }
        float_val: 1.0
      }
    }
  }
}
node {
  name: "Adam/moving_avg/add"
  op: "Add"
  input: "Adam/moving_avg/add/x"
  input: "Training_step/read"
  attr {
    key: "T"
    value {
      type: DT_FLOAT
    }
  }
}
node {
  name: "Adam/moving_avg/add_1/x"
  op: "Const"
  attr {
    key: "dtype"
    value {
      type: DT_FLOAT
    }
  }
  attr {
    key: "value"
    value {
      tensor {
        dtype: DT_FLOAT
        tensor_shape {
        }
        float_val: 10.0
      }
    }
  }
}
node {
  name: "Adam/moving_avg/add_1"
  op: "Add"
  input: "Adam/moving_avg/add_1/x"
  input: "Training_step/read"
  attr {
    key: "T"
    value {
      type: DT_FLOAT
    }
  }
}
node {
  name: "Adam/moving_avg/truediv"
  op: "RealDiv"
  input: "Adam/moving_avg/add"
  input: "Adam/moving_avg/add_1"
  attr {
    key: "T"
    value {
      type: DT_FLOAT
    }
  }
}
node {
  name: "Adam/moving_avg/Minimum"
  op: "Minimum"
  input: "Adam/moving_avg/decay"
  input: "Adam/moving_avg/truediv"
  attr {
    key: "T"
    value {
      type: DT_FLOAT
    }
  }
}
node {
  name: "Adam/moving_avg/AssignMovingAvg/sub/x"
  op: "Const"
  attr {
    key: "_class"
    value {
      list {
        s: "loc:@Crossentropy/Mean/moving_avg"
      }
    }
  }
  attr {
    key: "dtype"
    value {
      type: DT_FLOAT
    }
  }
  attr {
    key: "value"
    value {
      tensor {
        dtype: DT_FLOAT
        tensor_shape {
        }
        float_val: 1.0
      }
    }
  }
}
node {
  name: "Adam/moving_avg/AssignMovingAvg/sub"
  op: "Sub"
  input: "Adam/moving_avg/AssignMovingAvg/sub/x"
  input: "Adam/moving_avg/Minimum"
  attr {
    key: "T"
    value {
      type: DT_FLOAT
    }
  }
  attr {
    key: "_class"
    value {
      list {
        s: "loc:@Crossentropy/Mean/moving_avg"
      }
    }
  }
}
node {
  name: "Adam/moving_avg/AssignMovingAvg/sub_1"
  op: "Sub"
  input: "Crossentropy/Mean/moving_avg/read"
  input: "Crossentropy/Mean"
  attr {
    key: "T"
    value {
      type: DT_FLOAT
    }
  }
  attr {
    key: "_class"
    value {
      list {
        s: "loc:@Crossentropy/Mean/moving_avg"
      }
    }
  }
}
node {
  name: "Adam/moving_avg/AssignMovingAvg/mul"
  op: "Mul"
  input: "Adam/moving_avg/AssignMovingAvg/sub_1"
  input: "Adam/moving_avg/AssignMovingAvg/sub"
  attr {
    key: "T"
    value {
      type: DT_FLOAT
    }
  }
  attr {
    key: "_class"
    value {
      list {
        s: "loc:@Crossentropy/Mean/moving_avg"
      }
    }
  }
}
node {
  name: "Adam/moving_avg/AssignMovingAvg"
  op: "AssignSub"
  input: "Crossentropy/Mean/moving_avg"
  input: "Adam/moving_avg/AssignMovingAvg/mul"
  attr {
    key: "T"
    value {
      type: DT_FLOAT
    }
  }
  attr {
    key: "_class"
    value {
      list {
        s: "loc:@Crossentropy/Mean/moving_avg"
      }
    }
  }
  attr {
    key: "use_locking"
    value {
      b: false
    }
  }
}
node {
  name: "Adam/moving_avg"
  op: "NoOp"
  input: "^Adam/moving_avg/AssignMovingAvg"
}
node {
  name: "Loss/tags"
  op: "Const"
  attr {
    key: "dtype"
    value {
      type: DT_STRING
    }
  }
  attr {
    key: "value"
    value {
      tensor {
        dtype: DT_STRING
        tensor_shape {
        }
        string_val: "Loss"
      }
    }
  }
}
node {
  name: "Loss"
  op: "ScalarSummary"
  input: "Loss/tags"
  input: "Crossentropy/Mean/moving_avg/read"
  attr {
    key: "T"
    value {
      type: DT_FLOAT
    }
  }
}
node {
  name: "Adam/Loss/raw/tags"
  op: "Const"
  attr {
    key: "dtype"
    value {
      type: DT_STRING
    }
  }
  attr {
    key: "value"
    value {
      tensor {
        dtype: DT_STRING
        tensor_shape {
        }
        string_val: "Adam/Loss/raw"
      }
    }
  }
}
node {
  name: "Adam/Loss/raw"
  op: "ScalarSummary"
  input: "Adam/Loss/raw/tags"
  input: "Crossentropy/Mean"
  attr {
    key: "T"
    value {
      type: DT_FLOAT
    }
  }
}
node {
  name: "Adam/gradients/Shape"
  op: "Const"
  input: "^Adam/moving_avg"
  input: "^moving_avg"
  attr {
    key: "dtype"
    value {
      type: DT_INT32
    }
  }
  attr {
    key: "value"
    value {
      tensor {
        dtype: DT_INT32
        tensor_shape {
          dim {
          }
        }
      }
    }
  }
}
node {
  name: "Adam/gradients/Const"
  op: "Const"
  input: "^Adam/moving_avg"
  input: "^moving_avg"
  attr {
    key: "dtype"
    value {
      type: DT_FLOAT
    }
  }
  attr {
    key: "value"
    value {
      tensor {
        dtype: DT_FLOAT
        tensor_shape {
        }
        float_val: 1.0
      }
    }
  }
}
node {
  name: "Adam/gradients/Fill"
  op: "Fill"
  input: "Adam/gradients/Shape"
  input: "Adam/gradients/Const"
  attr {
    key: "T"
    value {
      type: DT_FLOAT
    }
  }
}
node {
  name: "Adam/gradients/Crossentropy/Mean_grad/Reshape/shape"
  op: "Const"
  input: "^Adam/moving_avg"
  input: "^moving_avg"
  attr {
    key: "dtype"
    value {
      type: DT_INT32
    }
  }
  attr {
    key: "value"
    value {
      tensor {
        dtype: DT_INT32
        tensor_shape {
          dim {
            size: 1
          }
        }
        int_val: 1
      }
    }
  }
}
node {
  name: "Adam/gradients/Crossentropy/Mean_grad/Reshape"
  op: "Reshape"
  input: "Adam/gradients/Fill"
  input: "Adam/gradients/Crossentropy/Mean_grad/Reshape/shape"
  attr {
    key: "T"
    value {
      type: DT_FLOAT
    }
  }
  attr {
    key: "Tshape"
    value {
      type: DT_INT32
    }
  }
}
node {
  name: "Adam/gradients/Crossentropy/Mean_grad/Shape"
  op: "Shape"
  input: "Crossentropy/Neg"
  input: "^Adam/moving_avg"
  input: "^moving_avg"
  attr {
    key: "T"
    value {
      type: DT_FLOAT
    }
  }
  attr {
    key: "out_type"
    value {
      type: DT_INT32
    }
  }
}
node {
  name: "Adam/gradients/Crossentropy/Mean_grad/Tile"
  op: "Tile"
  input: "Adam/gradients/Crossentropy/Mean_grad/Reshape"
  input: "Adam/gradients/Crossentropy/Mean_grad/Shape"
  attr {
    key: "T"
    value {
      type: DT_FLOAT
    }
  }
  attr {
    key: "Tmultiples"
    value {
      type: DT_INT32
    }
  }
}
node {
  name: "Adam/gradients/Crossentropy/Mean_grad/Shape_1"
  op: "Shape"
  input: "Crossentropy/Neg"
  input: "^Adam/moving_avg"
  input: "^moving_avg"
  attr {
    key: "T"
    value {
      type: DT_FLOAT
    }
  }
  attr {
    key: "out_type"
    value {
      type: DT_INT32
    }
  }
}
node {
  name: "Adam/gradients/Crossentropy/Mean_grad/Shape_2"
  op: "Const"
  input: "^Adam/moving_avg"
  input: "^moving_avg"
  attr {
    key: "dtype"
    value {
      type: DT_INT32
    }
  }
  attr {
    key: "value"
    value {
      tensor {
        dtype: DT_INT32
        tensor_shape {
          dim {
          }
        }
      }
    }
  }
}
node {
  name: "Adam/gradients/Crossentropy/Mean_grad/Const"
  op: "Const"
  input: "^Adam/moving_avg"
  input: "^moving_avg"
  attr {
    key: "dtype"
    value {
      type: DT_INT32
    }
  }
  attr {
    key: "value"
    value {
      tensor {
        dtype: DT_INT32
        tensor_shape {
          dim {
            size: 1
          }
        }
        int_val: 0
      }
    }
  }
}
node {
  name: "Adam/gradients/Crossentropy/Mean_grad/Prod"
  op: "Prod"
  input: "Adam/gradients/Crossentropy/Mean_grad/Shape_1"
  input: "Adam/gradients/Crossentropy/Mean_grad/Const"
  attr {
    key: "T"
    value {
      type: DT_INT32
    }
  }
  attr {
    key: "Tidx"
    value {
      type: DT_INT32
    }
  }
  attr {
    key: "keep_dims"
    value {
      b: false
    }
  }
}
node {
  name: "Adam/gradients/Crossentropy/Mean_grad/Const_1"
  op: "Const"
  input: "^Adam/moving_avg"
  input: "^moving_avg"
  attr {
    key: "dtype"
    value {
      type: DT_INT32
    }
  }
  attr {
    key: "value"
    value {
      tensor {
        dtype: DT_INT32
        tensor_shape {
          dim {
            size: 1
          }
        }
        int_val: 0
      }
    }
  }
}
node {
  name: "Adam/gradients/Crossentropy/Mean_grad/Prod_1"
  op: "Prod"
  input: "Adam/gradients/Crossentropy/Mean_grad/Shape_2"
  input: "Adam/gradients/Crossentropy/Mean_grad/Const_1"
  attr {
    key: "T"
    value {
      type: DT_INT32
    }
  }
  attr {
    key: "Tidx"
    value {
      type: DT_INT32
    }
  }
  attr {
    key: "keep_dims"
    value {
      b: false
    }
  }
}
node {
  name: "Adam/gradients/Crossentropy/Mean_grad/Maximum/y"
  op: "Const"
  input: "^Adam/moving_avg"
  input: "^moving_avg"
  attr {
    key: "dtype"
    value {
      type: DT_INT32
    }
  }
  attr {
    key: "value"
    value {
      tensor {
        dtype: DT_INT32
        tensor_shape {
        }
        int_val: 1
      }
    }
  }
}
node {
  name: "Adam/gradients/Crossentropy/Mean_grad/Maximum"
  op: "Maximum"
  input: "Adam/gradients/Crossentropy/Mean_grad/Prod_1"
  input: "Adam/gradients/Crossentropy/Mean_grad/Maximum/y"
  attr {
    key: "T"
    value {
      type: DT_INT32
    }
  }
}
node {
  name: "Adam/gradients/Crossentropy/Mean_grad/floordiv"
  op: "FloorDiv"
  input: "Adam/gradients/Crossentropy/Mean_grad/Prod"
  input: "Adam/gradients/Crossentropy/Mean_grad/Maximum"
  attr {
    key: "T"
    value {
      type: DT_INT32
    }
  }
}
node {
  name: "Adam/gradients/Crossentropy/Mean_grad/Cast"
  op: "Cast"
  input: "Adam/gradients/Crossentropy/Mean_grad/floordiv"
  attr {
    key: "DstT"
    value {
      type: DT_FLOAT
    }
  }
  attr {
    key: "SrcT"
    value {
      type: DT_INT32
    }
  }
}
node {
  name: "Adam/gradients/Crossentropy/Mean_grad/truediv"
  op: "RealDiv"
  input: "Adam/gradients/Crossentropy/Mean_grad/Tile"
  input: "Adam/gradients/Crossentropy/Mean_grad/Cast"
  attr {
    key: "T"
    value {
      type: DT_FLOAT
    }
  }
}
node {
  name: "Adam/gradients/Crossentropy/Neg_grad/Neg"
  op: "Neg"
  input: "Adam/gradients/Crossentropy/Mean_grad/truediv"
  attr {
    key: "T"
    value {
      type: DT_FLOAT
    }
  }
}
node {
  name: "Adam/gradients/Crossentropy/Sum_1_grad/Shape"
  op: "Shape"
  input: "Crossentropy/mul"
  input: "^Adam/moving_avg"
  input: "^moving_avg"
  attr {
    key: "T"
    value {
      type: DT_FLOAT
    }
  }
  attr {
    key: "out_type"
    value {
      type: DT_INT32
    }
  }
}
node {
  name: "Adam/gradients/Crossentropy/Sum_1_grad/Size"
  op: "Const"
  input: "^Adam/moving_avg"
  input: "^moving_avg"
  attr {
    key: "dtype"
    value {
      type: DT_INT32
    }
  }
  attr {
    key: "value"
    value {
      tensor {
        dtype: DT_INT32
        tensor_shape {
        }
        int_val: 2
      }
    }
  }
}
node {
  name: "Adam/gradients/Crossentropy/Sum_1_grad/add"
  op: "Add"
  input: "Crossentropy/Sum_1/reduction_indices"
  input: "Adam/gradients/Crossentropy/Sum_1_grad/Size"
  attr {
    key: "T"
    value {
      type: DT_INT32
    }
  }
}
node {
  name: "Adam/gradients/Crossentropy/Sum_1_grad/mod"
  op: "FloorMod"
  input: "Adam/gradients/Crossentropy/Sum_1_grad/add"
  input: "Adam/gradients/Crossentropy/Sum_1_grad/Size"
  attr {
    key: "T"
    value {
      type: DT_INT32
    }
  }
}
node {
  name: "Adam/gradients/Crossentropy/Sum_1_grad/Shape_1"
  op: "Const"
  input: "^Adam/moving_avg"
  input: "^moving_avg"
  attr {
    key: "dtype"
    value {
      type: DT_INT32
    }
  }
  attr {
    key: "value"
    value {
      tensor {
        dtype: DT_INT32
        tensor_shape {
          dim {
          }
        }
      }
    }
  }
}
node {
  name: "Adam/gradients/Crossentropy/Sum_1_grad/range/start"
  op: "Const"
  input: "^Adam/moving_avg"
  input: "^moving_avg"
  attr {
    key: "dtype"
    value {
      type: DT_INT32
    }
  }
  attr {
    key: "value"
    value {
      tensor {
        dtype: DT_INT32
        tensor_shape {
        }
        int_val: 0
      }
    }
  }
}
node {
  name: "Adam/gradients/Crossentropy/Sum_1_grad/range/delta"
  op: "Const"
  input: "^Adam/moving_avg"
  input: "^moving_avg"
  attr {
    key: "dtype"
    value {
      type: DT_INT32
    }
  }
  attr {
    key: "value"
    value {
      tensor {
        dtype: DT_INT32
        tensor_shape {
        }
        int_val: 1
      }
    }
  }
}
node {
  name: "Adam/gradients/Crossentropy/Sum_1_grad/range"
  op: "Range"
  input: "Adam/gradients/Crossentropy/Sum_1_grad/range/start"
  input: "Adam/gradients/Crossentropy/Sum_1_grad/Size"
  input: "Adam/gradients/Crossentropy/Sum_1_grad/range/delta"
  attr {
    key: "Tidx"
    value {
      type: DT_INT32
    }
  }
}
node {
  name: "Adam/gradients/Crossentropy/Sum_1_grad/Fill/value"
  op: "Const"
  input: "^Adam/moving_avg"
  input: "^moving_avg"
  attr {
    key: "dtype"
    value {
      type: DT_INT32
    }
  }
  attr {
    key: "value"
    value {
      tensor {
        dtype: DT_INT32
        tensor_shape {
        }
        int_val: 1
      }
    }
  }
}
node {
  name: "Adam/gradients/Crossentropy/Sum_1_grad/Fill"
  op: "Fill"
  input: "Adam/gradients/Crossentropy/Sum_1_grad/Shape_1"
  input: "Adam/gradients/Crossentropy/Sum_1_grad/Fill/value"
  attr {
    key: "T"
    value {
      type: DT_INT32
    }
  }
}
node {
  name: "Adam/gradients/Crossentropy/Sum_1_grad/DynamicStitch"
  op: "DynamicStitch"
  input: "Adam/gradients/Crossentropy/Sum_1_grad/range"
  input: "Adam/gradients/Crossentropy/Sum_1_grad/mod"
  input: "Adam/gradients/Crossentropy/Sum_1_grad/Shape"
  input: "Adam/gradients/Crossentropy/Sum_1_grad/Fill"
  attr {
    key: "N"
    value {
      i: 2
    }
  }
  attr {
    key: "T"
    value {
      type: DT_INT32
    }
  }
}
node {
  name: "Adam/gradients/Crossentropy/Sum_1_grad/Maximum/y"
  op: "Const"
  input: "^Adam/moving_avg"
  input: "^moving_avg"
  attr {
    key: "dtype"
    value {
      type: DT_INT32
    }
  }
  attr {
    key: "value"
    value {
      tensor {
        dtype: DT_INT32
        tensor_shape {
        }
        int_val: 1
      }
    }
  }
}
node {
  name: "Adam/gradients/Crossentropy/Sum_1_grad/Maximum"
  op: "Maximum"
  input: "Adam/gradients/Crossentropy/Sum_1_grad/DynamicStitch"
  input: "Adam/gradients/Crossentropy/Sum_1_grad/Maximum/y"
  attr {
    key: "T"
    value {
      type: DT_INT32
    }
  }
}
node {
  name: "Adam/gradients/Crossentropy/Sum_1_grad/floordiv"
  op: "FloorDiv"
  input: "Adam/gradients/Crossentropy/Sum_1_grad/Shape"
  input: "Adam/gradients/Crossentropy/Sum_1_grad/Maximum"
  attr {
    key: "T"
    value {
      type: DT_INT32
    }
  }
}
node {
  name: "Adam/gradients/Crossentropy/Sum_1_grad/Reshape"
  op: "Reshape"
  input: "Adam/gradients/Crossentropy/Neg_grad/Neg"
  input: "Adam/gradients/Crossentropy/Sum_1_grad/DynamicStitch"
  attr {
    key: "T"
    value {
      type: DT_FLOAT
    }
  }
  attr {
    key: "Tshape"
    value {
      type: DT_INT32
    }
  }
}
node {
  name: "Adam/gradients/Crossentropy/Sum_1_grad/Tile"
  op: "Tile"
  input: "Adam/gradients/Crossentropy/Sum_1_grad/Reshape"
  input: "Adam/gradients/Crossentropy/Sum_1_grad/floordiv"
  attr {
    key: "T"
    value {
      type: DT_FLOAT
    }
  }
  attr {
    key: "Tmultiples"
    value {
      type: DT_INT32
    }
  }
}
node {
  name: "Adam/gradients/Crossentropy/mul_grad/Shape"
  op: "Shape"
  input: "TargetsData/Y"
  input: "^Adam/moving_avg"
  input: "^moving_avg"
  attr {
    key: "T"
    value {
      type: DT_FLOAT
    }
  }
  attr {
    key: "out_type"
    value {
      type: DT_INT32
    }
  }
}
node {
  name: "Adam/gradients/Crossentropy/mul_grad/Shape_1"
  op: "Shape"
  input: "Crossentropy/Log"
  input: "^Adam/moving_avg"
  input: "^moving_avg"
  attr {
    key: "T"
    value {
      type: DT_FLOAT
    }
  }
  attr {
    key: "out_type"
    value {
      type: DT_INT32
    }
  }
}
node {
  name: "Adam/gradients/Crossentropy/mul_grad/BroadcastGradientArgs"
  op: "BroadcastGradientArgs"
  input: "Adam/gradients/Crossentropy/mul_grad/Shape"
  input: "Adam/gradients/Crossentropy/mul_grad/Shape_1"
  attr {
    key: "T"
    value {
      type: DT_INT32
    }
  }
}
node {
  name: "Adam/gradients/Crossentropy/mul_grad/mul"
  op: "Mul"
  input: "Adam/gradients/Crossentropy/Sum_1_grad/Tile"
  input: "Crossentropy/Log"
  attr {
    key: "T"
    value {
      type: DT_FLOAT
    }
  }
}
node {
  name: "Adam/gradients/Crossentropy/mul_grad/Sum"
  op: "Sum"
  input: "Adam/gradients/Crossentropy/mul_grad/mul"
  input: "Adam/gradients/Crossentropy/mul_grad/BroadcastGradientArgs"
  attr {
    key: "T"
    value {
      type: DT_FLOAT
    }
  }
  attr {
    key: "Tidx"
    value {
      type: DT_INT32
    }
  }
  attr {
    key: "keep_dims"
    value {
      b: false
    }
  }
}
node {
  name: "Adam/gradients/Crossentropy/mul_grad/Reshape"
  op: "Reshape"
  input: "Adam/gradients/Crossentropy/mul_grad/Sum"
  input: "Adam/gradients/Crossentropy/mul_grad/Shape"
  attr {
    key: "T"
    value {
      type: DT_FLOAT
    }
  }
  attr {
    key: "Tshape"
    value {
      type: DT_INT32
    }
  }
}
node {
  name: "Adam/gradients/Crossentropy/mul_grad/mul_1"
  op: "Mul"
  input: "TargetsData/Y"
  input: "Adam/gradients/Crossentropy/Sum_1_grad/Tile"
  attr {
    key: "T"
    value {
      type: DT_FLOAT
    }
  }
}
node {
  name: "Adam/gradients/Crossentropy/mul_grad/Sum_1"
  op: "Sum"
  input: "Adam/gradients/Crossentropy/mul_grad/mul_1"
  input: "Adam/gradients/Crossentropy/mul_grad/BroadcastGradientArgs:1"
  attr {
    key: "T"
    value {
      type: DT_FLOAT
    }
  }
  attr {
    key: "Tidx"
    value {
      type: DT_INT32
    }
  }
  attr {
    key: "keep_dims"
    value {
      b: false
    }
  }
}
node {
  name: "Adam/gradients/Crossentropy/mul_grad/Reshape_1"
  op: "Reshape"
  input: "Adam/gradients/Crossentropy/mul_grad/Sum_1"
  input: "Adam/gradients/Crossentropy/mul_grad/Shape_1"
  attr {
    key: "T"
    value {
      type: DT_FLOAT
    }
  }
  attr {
    key: "Tshape"
    value {
      type: DT_INT32
    }
  }
}
node {
  name: "Adam/gradients/Crossentropy/Log_grad/Reciprocal"
  op: "Reciprocal"
  input: "Crossentropy/clip_by_value"
  input: "^Adam/moving_avg"
  input: "^moving_avg"
  input: "^Adam/gradients/Crossentropy/mul_grad/Reshape_1"
  attr {
    key: "T"
    value {
      type: DT_FLOAT
    }
  }
}
node {
  name: "Adam/gradients/Crossentropy/Log_grad/mul"
  op: "Mul"
  input: "Adam/gradients/Crossentropy/mul_grad/Reshape_1"
  input: "Adam/gradients/Crossentropy/Log_grad/Reciprocal"
  attr {
    key: "T"
    value {
      type: DT_FLOAT
    }
  }
}
node {
  name: "Adam/gradients/Crossentropy/clip_by_value_grad/Shape"
  op: "Shape"
  input: "Crossentropy/clip_by_value/Minimum"
  input: "^Adam/moving_avg"
  input: "^moving_avg"
  attr {
    key: "T"
    value {
      type: DT_FLOAT
    }
  }
  attr {
    key: "out_type"
    value {
      type: DT_INT32
    }
  }
}
node {
  name: "Adam/gradients/Crossentropy/clip_by_value_grad/Shape_1"
  op: "Const"
  input: "^Adam/moving_avg"
  input: "^moving_avg"
  attr {
    key: "dtype"
    value {
      type: DT_INT32
    }
  }
  attr {
    key: "value"
    value {
      tensor {
        dtype: DT_INT32
        tensor_shape {
          dim {
          }
        }
      }
    }
  }
}
node {
  name: "Adam/gradients/Crossentropy/clip_by_value_grad/Shape_2"
  op: "Shape"
  input: "Adam/gradients/Crossentropy/Log_grad/mul"
  attr {
    key: "T"
    value {
      type: DT_FLOAT
    }
  }
  attr {
    key: "out_type"
    value {
      type: DT_INT32
    }
  }
}
node {
  name: "Adam/gradients/Crossentropy/clip_by_value_grad/zeros/Const"
  op: "Const"
  input: "^Adam/moving_avg"
  input: "^moving_avg"
  attr {
    key: "dtype"
    value {
      type: DT_FLOAT
    }
  }
  attr {
    key: "value"
    value {
      tensor {
        dtype: DT_FLOAT
        tensor_shape {
        }
        float_val: 0.0
      }
    }
  }
}
node {
  name: "Adam/gradients/Crossentropy/clip_by_value_grad/zeros"
  op: "Fill"
  input: "Adam/gradients/Crossentropy/clip_by_value_grad/Shape_2"
  input: "Adam/gradients/Crossentropy/clip_by_value_grad/zeros/Const"
  attr {
    key: "T"
    value {
      type: DT_FLOAT
    }
  }
}
node {
  name: "Adam/gradients/Crossentropy/clip_by_value_grad/GreaterEqual"
  op: "GreaterEqual"
  input: "Crossentropy/clip_by_value/Minimum"
  input: "Crossentropy/Cast/x"
  input: "^Adam/moving_avg"
  input: "^moving_avg"
  attr {
    key: "T"
    value {
      type: DT_FLOAT
    }
  }
}
node {
  name: "Adam/gradients/Crossentropy/clip_by_value_grad/BroadcastGradientArgs"
  op: "BroadcastGradientArgs"
  input: "Adam/gradients/Crossentropy/clip_by_value_grad/Shape"
  input: "Adam/gradients/Crossentropy/clip_by_value_grad/Shape_1"
  attr {
    key: "T"
    value {
      type: DT_INT32
    }
  }
}
node {
  name: "Adam/gradients/Crossentropy/clip_by_value_grad/Select"
  op: "Select"
  input: "Adam/gradients/Crossentropy/clip_by_value_grad/GreaterEqual"
  input: "Adam/gradients/Crossentropy/Log_grad/mul"
  input: "Adam/gradients/Crossentropy/clip_by_value_grad/zeros"
  attr {
    key: "T"
    value {
      type: DT_FLOAT
    }
  }
}
node {
  name: "Adam/gradients/Crossentropy/clip_by_value_grad/LogicalNot"
  op: "LogicalNot"
  input: "Adam/gradients/Crossentropy/clip_by_value_grad/GreaterEqual"
}
node {
  name: "Adam/gradients/Crossentropy/clip_by_value_grad/Select_1"
  op: "Select"
  input: "Adam/gradients/Crossentropy/clip_by_value_grad/LogicalNot"
  input: "Adam/gradients/Crossentropy/Log_grad/mul"
  input: "Adam/gradients/Crossentropy/clip_by_value_grad/zeros"
  attr {
    key: "T"
    value {
      type: DT_FLOAT
    }
  }
}
node {
  name: "Adam/gradients/Crossentropy/clip_by_value_grad/Sum"
  op: "Sum"
  input: "Adam/gradients/Crossentropy/clip_by_value_grad/Select"
  input: "Adam/gradients/Crossentropy/clip_by_value_grad/BroadcastGradientArgs"
  attr {
    key: "T"
    value {
      type: DT_FLOAT
    }
  }
  attr {
    key: "Tidx"
    value {
      type: DT_INT32
    }
  }
  attr {
    key: "keep_dims"
    value {
      b: false
    }
  }
}
node {
  name: "Adam/gradients/Crossentropy/clip_by_value_grad/Reshape"
  op: "Reshape"
  input: "Adam/gradients/Crossentropy/clip_by_value_grad/Sum"
  input: "Adam/gradients/Crossentropy/clip_by_value_grad/Shape"
  attr {
    key: "T"
    value {
      type: DT_FLOAT
    }
  }
  attr {
    key: "Tshape"
    value {
      type: DT_INT32
    }
  }
}
node {
  name: "Adam/gradients/Crossentropy/clip_by_value_grad/Sum_1"
  op: "Sum"
  input: "Adam/gradients/Crossentropy/clip_by_value_grad/Select_1"
  input: "Adam/gradients/Crossentropy/clip_by_value_grad/BroadcastGradientArgs:1"
  attr {
    key: "T"
    value {
      type: DT_FLOAT
    }
  }
  attr {
    key: "Tidx"
    value {
      type: DT_INT32
    }
  }
  attr {
    key: "keep_dims"
    value {
      b: false
    }
  }
}
node {
  name: "Adam/gradients/Crossentropy/clip_by_value_grad/Reshape_1"
  op: "Reshape"
  input: "Adam/gradients/Crossentropy/clip_by_value_grad/Sum_1"
  input: "Adam/gradients/Crossentropy/clip_by_value_grad/Shape_1"
  attr {
    key: "T"
    value {
      type: DT_FLOAT
    }
  }
  attr {
    key: "Tshape"
    value {
      type: DT_INT32
    }
  }
}
node {
  name: "Adam/gradients/Crossentropy/clip_by_value/Minimum_grad/Shape"
  op: "Shape"
  input: "Crossentropy/truediv"
  input: "^Adam/moving_avg"
  input: "^moving_avg"
  attr {
    key: "T"
    value {
      type: DT_FLOAT
    }
  }
  attr {
    key: "out_type"
    value {
      type: DT_INT32
    }
  }
}
node {
  name: "Adam/gradients/Crossentropy/clip_by_value/Minimum_grad/Shape_1"
  op: "Const"
  input: "^Adam/moving_avg"
  input: "^moving_avg"
  attr {
    key: "dtype"
    value {
      type: DT_INT32
    }
  }
  attr {
    key: "value"
    value {
      tensor {
        dtype: DT_INT32
        tensor_shape {
          dim {
          }
        }
      }
    }
  }
}
node {
  name: "Adam/gradients/Crossentropy/clip_by_value/Minimum_grad/Shape_2"
  op: "Shape"
  input: "Adam/gradients/Crossentropy/clip_by_value_grad/Reshape"
  attr {
    key: "T"
    value {
      type: DT_FLOAT
    }
  }
  attr {
    key: "out_type"
    value {
      type: DT_INT32
    }
  }
}
node {
  name: "Adam/gradients/Crossentropy/clip_by_value/Minimum_grad/zeros/Const"
  op: "Const"
  input: "^Adam/moving_avg"
  input: "^moving_avg"
  attr {
    key: "dtype"
    value {
      type: DT_FLOAT
    }
  }
  attr {
    key: "value"
    value {
      tensor {
        dtype: DT_FLOAT
        tensor_shape {
        }
        float_val: 0.0
      }
    }
  }
}
node {
  name: "Adam/gradients/Crossentropy/clip_by_value/Minimum_grad/zeros"
  op: "Fill"
  input: "Adam/gradients/Crossentropy/clip_by_value/Minimum_grad/Shape_2"
  input: "Adam/gradients/Crossentropy/clip_by_value/Minimum_grad/zeros/Const"
  attr {
    key: "T"
    value {
      type: DT_FLOAT
    }
  }
}
node {
  name: "Adam/gradients/Crossentropy/clip_by_value/Minimum_grad/LessEqual"
  op: "LessEqual"
  input: "Crossentropy/truediv"
  input: "Crossentropy/Cast_1/x"
  input: "^Adam/moving_avg"
  input: "^moving_avg"
  attr {
    key: "T"
    value {
      type: DT_FLOAT
    }
  }
}
node {
  name: "Adam/gradients/Crossentropy/clip_by_value/Minimum_grad/BroadcastGradientArgs"
  op: "BroadcastGradientArgs"
  input: "Adam/gradients/Crossentropy/clip_by_value/Minimum_grad/Shape"
  input: "Adam/gradients/Crossentropy/clip_by_value/Minimum_grad/Shape_1"
  attr {
    key: "T"
    value {
      type: DT_INT32
    }
  }
}
node {
  name: "Adam/gradients/Crossentropy/clip_by_value/Minimum_grad/Select"
  op: "Select"
  input: "Adam/gradients/Crossentropy/clip_by_value/Minimum_grad/LessEqual"
  input: "Adam/gradients/Crossentropy/clip_by_value_grad/Reshape"
  input: "Adam/gradients/Crossentropy/clip_by_value/Minimum_grad/zeros"
  attr {
    key: "T"
    value {
      type: DT_FLOAT
    }
  }
}
node {
  name: "Adam/gradients/Crossentropy/clip_by_value/Minimum_grad/LogicalNot"
  op: "LogicalNot"
  input: "Adam/gradients/Crossentropy/clip_by_value/Minimum_grad/LessEqual"
}
node {
  name: "Adam/gradients/Crossentropy/clip_by_value/Minimum_grad/Select_1"
  op: "Select"
  input: "Adam/gradients/Crossentropy/clip_by_value/Minimum_grad/LogicalNot"
  input: "Adam/gradients/Crossentropy/clip_by_value_grad/Reshape"
  input: "Adam/gradients/Crossentropy/clip_by_value/Minimum_grad/zeros"
  attr {
    key: "T"
    value {
      type: DT_FLOAT
    }
  }
}
node {
  name: "Adam/gradients/Crossentropy/clip_by_value/Minimum_grad/Sum"
  op: "Sum"
  input: "Adam/gradients/Crossentropy/clip_by_value/Minimum_grad/Select"
  input: "Adam/gradients/Crossentropy/clip_by_value/Minimum_grad/BroadcastGradientArgs"
  attr {
    key: "T"
    value {
      type: DT_FLOAT
    }
  }
  attr {
    key: "Tidx"
    value {
      type: DT_INT32
    }
  }
  attr {
    key: "keep_dims"
    value {
      b: false
    }
  }
}
node {
  name: "Adam/gradients/Crossentropy/clip_by_value/Minimum_grad/Reshape"
  op: "Reshape"
  input: "Adam/gradients/Crossentropy/clip_by_value/Minimum_grad/Sum"
  input: "Adam/gradients/Crossentropy/clip_by_value/Minimum_grad/Shape"
  attr {
    key: "T"
    value {
      type: DT_FLOAT
    }
  }
  attr {
    key: "Tshape"
    value {
      type: DT_INT32
    }
  }
}
node {
  name: "Adam/gradients/Crossentropy/clip_by_value/Minimum_grad/Sum_1"
  op: "Sum"
  input: "Adam/gradients/Crossentropy/clip_by_value/Minimum_grad/Select_1"
  input: "Adam/gradients/Crossentropy/clip_by_value/Minimum_grad/BroadcastGradientArgs:1"
  attr {
    key: "T"
    value {
      type: DT_FLOAT
    }
  }
  attr {
    key: "Tidx"
    value {
      type: DT_INT32
    }
  }
  attr {
    key: "keep_dims"
    value {
      b: false
    }
  }
}
node {
  name: "Adam/gradients/Crossentropy/clip_by_value/Minimum_grad/Reshape_1"
  op: "Reshape"
  input: "Adam/gradients/Crossentropy/clip_by_value/Minimum_grad/Sum_1"
  input: "Adam/gradients/Crossentropy/clip_by_value/Minimum_grad/Shape_1"
  attr {
    key: "T"
    value {
      type: DT_FLOAT
    }
  }
  attr {
    key: "Tshape"
    value {
      type: DT_INT32
    }
  }
}
node {
  name: "Adam/gradients/Crossentropy/truediv_grad/Shape"
  op: "Shape"
  input: "FullyConnected_2/Softmax"
  input: "^Adam/moving_avg"
  input: "^moving_avg"
  attr {
    key: "T"
    value {
      type: DT_FLOAT
    }
  }
  attr {
    key: "out_type"
    value {
      type: DT_INT32
    }
  }
}
node {
  name: "Adam/gradients/Crossentropy/truediv_grad/Shape_1"
  op: "Shape"
  input: "Crossentropy/Sum"
  input: "^Adam/moving_avg"
  input: "^moving_avg"
  attr {
    key: "T"
    value {
      type: DT_FLOAT
    }
  }
  attr {
    key: "out_type"
    value {
      type: DT_INT32
    }
  }
}
node {
  name: "Adam/gradients/Crossentropy/truediv_grad/BroadcastGradientArgs"
  op: "BroadcastGradientArgs"
  input: "Adam/gradients/Crossentropy/truediv_grad/Shape"
  input: "Adam/gradients/Crossentropy/truediv_grad/Shape_1"
  attr {
    key: "T"
    value {
      type: DT_INT32
    }
  }
}
node {
  name: "Adam/gradients/Crossentropy/truediv_grad/RealDiv"
  op: "RealDiv"
  input: "Adam/gradients/Crossentropy/clip_by_value/Minimum_grad/Reshape"
  input: "Crossentropy/Sum"
  attr {
    key: "T"
    value {
      type: DT_FLOAT
    }
  }
}
node {
  name: "Adam/gradients/Crossentropy/truediv_grad/Sum"
  op: "Sum"
  input: "Adam/gradients/Crossentropy/truediv_grad/RealDiv"
  input: "Adam/gradients/Crossentropy/truediv_grad/BroadcastGradientArgs"
  attr {
    key: "T"
    value {
      type: DT_FLOAT
    }
  }
  attr {
    key: "Tidx"
    value {
      type: DT_INT32
    }
  }
  attr {
    key: "keep_dims"
    value {
      b: false
    }
  }
}
node {
  name: "Adam/gradients/Crossentropy/truediv_grad/Reshape"
  op: "Reshape"
  input: "Adam/gradients/Crossentropy/truediv_grad/Sum"
  input: "Adam/gradients/Crossentropy/truediv_grad/Shape"
  attr {
    key: "T"
    value {
      type: DT_FLOAT
    }
  }
  attr {
    key: "Tshape"
    value {
      type: DT_INT32
    }
  }
}
node {
  name: "Adam/gradients/Crossentropy/truediv_grad/Neg"
  op: "Neg"
  input: "FullyConnected_2/Softmax"
  input: "^Adam/moving_avg"
  input: "^moving_avg"
  attr {
    key: "T"
    value {
      type: DT_FLOAT
    }
  }
}
node {
  name: "Adam/gradients/Crossentropy/truediv_grad/RealDiv_1"
  op: "RealDiv"
  input: "Adam/gradients/Crossentropy/truediv_grad/Neg"
  input: "Crossentropy/Sum"
  attr {
    key: "T"
    value {
      type: DT_FLOAT
    }
  }
}
node {
  name: "Adam/gradients/Crossentropy/truediv_grad/RealDiv_2"
  op: "RealDiv"
  input: "Adam/gradients/Crossentropy/truediv_grad/RealDiv_1"
  input: "Crossentropy/Sum"
  attr {
    key: "T"
    value {
      type: DT_FLOAT
    }
  }
}
node {
  name: "Adam/gradients/Crossentropy/truediv_grad/mul"
  op: "Mul"
  input: "Adam/gradients/Crossentropy/clip_by_value/Minimum_grad/Reshape"
  input: "Adam/gradients/Crossentropy/truediv_grad/RealDiv_2"
  attr {
    key: "T"
    value {
      type: DT_FLOAT
    }
  }
}
node {
  name: "Adam/gradients/Crossentropy/truediv_grad/Sum_1"
  op: "Sum"
  input: "Adam/gradients/Crossentropy/truediv_grad/mul"
  input: "Adam/gradients/Crossentropy/truediv_grad/BroadcastGradientArgs:1"
  attr {
    key: "T"
    value {
      type: DT_FLOAT
    }
  }
  attr {
    key: "Tidx"
    value {
      type: DT_INT32
    }
  }
  attr {
    key: "keep_dims"
    value {
      b: false
    }
  }
}
node {
  name: "Adam/gradients/Crossentropy/truediv_grad/Reshape_1"
  op: "Reshape"
  input: "Adam/gradients/Crossentropy/truediv_grad/Sum_1"
  input: "Adam/gradients/Crossentropy/truediv_grad/Shape_1"
  attr {
    key: "T"
    value {
      type: DT_FLOAT
    }
  }
  attr {
    key: "Tshape"
    value {
      type: DT_INT32
    }
  }
}
node {
  name: "Adam/gradients/Crossentropy/Sum_grad/Shape"
  op: "Shape"
  input: "FullyConnected_2/Softmax"
  input: "^Adam/moving_avg"
  input: "^moving_avg"
  attr {
    key: "T"
    value {
      type: DT_FLOAT
    }
  }
  attr {
    key: "out_type"
    value {
      type: DT_INT32
    }
  }
}
node {
  name: "Adam/gradients/Crossentropy/Sum_grad/Size"
  op: "Const"
  input: "^Adam/moving_avg"
  input: "^moving_avg"
  attr {
    key: "dtype"
    value {
      type: DT_INT32
    }
  }
  attr {
    key: "value"
    value {
      tensor {
        dtype: DT_INT32
        tensor_shape {
        }
        int_val: 2
      }
    }
  }
}
node {
  name: "Adam/gradients/Crossentropy/Sum_grad/add"
  op: "Add"
  input: "Crossentropy/Sum/reduction_indices"
  input: "Adam/gradients/Crossentropy/Sum_grad/Size"
  attr {
    key: "T"
    value {
      type: DT_INT32
    }
  }
}
node {
  name: "Adam/gradients/Crossentropy/Sum_grad/mod"
  op: "FloorMod"
  input: "Adam/gradients/Crossentropy/Sum_grad/add"
  input: "Adam/gradients/Crossentropy/Sum_grad/Size"
  attr {
    key: "T"
    value {
      type: DT_INT32
    }
  }
}
node {
  name: "Adam/gradients/Crossentropy/Sum_grad/Shape_1"
  op: "Const"
  input: "^Adam/moving_avg"
  input: "^moving_avg"
  attr {
    key: "dtype"
    value {
      type: DT_INT32
    }
  }
  attr {
    key: "value"
    value {
      tensor {
        dtype: DT_INT32
        tensor_shape {
          dim {
          }
        }
      }
    }
  }
}
node {
  name: "Adam/gradients/Crossentropy/Sum_grad/range/start"
  op: "Const"
  input: "^Adam/moving_avg"
  input: "^moving_avg"
  attr {
    key: "dtype"
    value {
      type: DT_INT32
    }
  }
  attr {
    key: "value"
    value {
      tensor {
        dtype: DT_INT32
        tensor_shape {
        }
        int_val: 0
      }
    }
  }
}
node {
  name: "Adam/gradients/Crossentropy/Sum_grad/range/delta"
  op: "Const"
  input: "^Adam/moving_avg"
  input: "^moving_avg"
  attr {
    key: "dtype"
    value {
      type: DT_INT32
    }
  }
  attr {
    key: "value"
    value {
      tensor {
        dtype: DT_INT32
        tensor_shape {
        }
        int_val: 1
      }
    }
  }
}
node {
  name: "Adam/gradients/Crossentropy/Sum_grad/range"
  op: "Range"
  input: "Adam/gradients/Crossentropy/Sum_grad/range/start"
  input: "Adam/gradients/Crossentropy/Sum_grad/Size"
  input: "Adam/gradients/Crossentropy/Sum_grad/range/delta"
  attr {
    key: "Tidx"
    value {
      type: DT_INT32
    }
  }
}
node {
  name: "Adam/gradients/Crossentropy/Sum_grad/Fill/value"
  op: "Const"
  input: "^Adam/moving_avg"
  input: "^moving_avg"
  attr {
    key: "dtype"
    value {
      type: DT_INT32
    }
  }
  attr {
    key: "value"
    value {
      tensor {
        dtype: DT_INT32
        tensor_shape {
        }
        int_val: 1
      }
    }
  }
}
node {
  name: "Adam/gradients/Crossentropy/Sum_grad/Fill"
  op: "Fill"
  input: "Adam/gradients/Crossentropy/Sum_grad/Shape_1"
  input: "Adam/gradients/Crossentropy/Sum_grad/Fill/value"
  attr {
    key: "T"
    value {
      type: DT_INT32
    }
  }
}
node {
  name: "Adam/gradients/Crossentropy/Sum_grad/DynamicStitch"
  op: "DynamicStitch"
  input: "Adam/gradients/Crossentropy/Sum_grad/range"
  input: "Adam/gradients/Crossentropy/Sum_grad/mod"
  input: "Adam/gradients/Crossentropy/Sum_grad/Shape"
  input: "Adam/gradients/Crossentropy/Sum_grad/Fill"
  attr {
    key: "N"
    value {
      i: 2
    }
  }
  attr {
    key: "T"
    value {
      type: DT_INT32
    }
  }
}
node {
  name: "Adam/gradients/Crossentropy/Sum_grad/Maximum/y"
  op: "Const"
  input: "^Adam/moving_avg"
  input: "^moving_avg"
  attr {
    key: "dtype"
    value {
      type: DT_INT32
    }
  }
  attr {
    key: "value"
    value {
      tensor {
        dtype: DT_INT32
        tensor_shape {
        }
        int_val: 1
      }
    }
  }
}
node {
  name: "Adam/gradients/Crossentropy/Sum_grad/Maximum"
  op: "Maximum"
  input: "Adam/gradients/Crossentropy/Sum_grad/DynamicStitch"
  input: "Adam/gradients/Crossentropy/Sum_grad/Maximum/y"
  attr {
    key: "T"
    value {
      type: DT_INT32
    }
  }
}
node {
  name: "Adam/gradients/Crossentropy/Sum_grad/floordiv"
  op: "FloorDiv"
  input: "Adam/gradients/Crossentropy/Sum_grad/Shape"
  input: "Adam/gradients/Crossentropy/Sum_grad/Maximum"
  attr {
    key: "T"
    value {
      type: DT_INT32
    }
  }
}
node {
  name: "Adam/gradients/Crossentropy/Sum_grad/Reshape"
  op: "Reshape"
  input: "Adam/gradients/Crossentropy/truediv_grad/Reshape_1"
  input: "Adam/gradients/Crossentropy/Sum_grad/DynamicStitch"
  attr {
    key: "T"
    value {
      type: DT_FLOAT
    }
  }
  attr {
    key: "Tshape"
    value {
      type: DT_INT32
    }
  }
}
node {
  name: "Adam/gradients/Crossentropy/Sum_grad/Tile"
  op: "Tile"
  input: "Adam/gradients/Crossentropy/Sum_grad/Reshape"
  input: "Adam/gradients/Crossentropy/Sum_grad/floordiv"
  attr {
    key: "T"
    value {
      type: DT_FLOAT
    }
  }
  attr {
    key: "Tmultiples"
    value {
      type: DT_INT32
    }
  }
}
node {
  name: "Adam/gradients/AddN"
  op: "AddN"
  input: "Adam/gradients/Crossentropy/truediv_grad/Reshape"
  input: "Adam/gradients/Crossentropy/Sum_grad/Tile"
  attr {
    key: "N"
    value {
      i: 2
    }
  }
  attr {
    key: "T"
    value {
      type: DT_FLOAT
    }
  }
  attr {
    key: "_class"
    value {
      list {
        s: "loc:@Adam/gradients/Crossentropy/truediv_grad/Reshape"
      }
    }
  }
}
node {
  name: "Adam/gradients/FullyConnected_2/Softmax_grad/mul"
  op: "Mul"
  input: "Adam/gradients/AddN"
  input: "FullyConnected_2/Softmax"
  attr {
    key: "T"
    value {
      type: DT_FLOAT
    }
  }
}
node {
  name: "Adam/gradients/FullyConnected_2/Softmax_grad/Sum/reduction_indices"
  op: "Const"
  input: "^Adam/moving_avg"
  input: "^moving_avg"
  attr {
    key: "dtype"
    value {
      type: DT_INT32
    }
  }
  attr {
    key: "value"
    value {
      tensor {
        dtype: DT_INT32
        tensor_shape {
          dim {
            size: 1
          }
        }
        int_val: 1
      }
    }
  }
}
node {
  name: "Adam/gradients/FullyConnected_2/Softmax_grad/Sum"
  op: "Sum"
  input: "Adam/gradients/FullyConnected_2/Softmax_grad/mul"
  input: "Adam/gradients/FullyConnected_2/Softmax_grad/Sum/reduction_indices"
  attr {
    key: "T"
    value {
      type: DT_FLOAT
    }
  }
  attr {
    key: "Tidx"
    value {
      type: DT_INT32
    }
  }
  attr {
    key: "keep_dims"
    value {
      b: false
    }
  }
}
node {
  name: "Adam/gradients/FullyConnected_2/Softmax_grad/Reshape/shape"
  op: "Const"
  input: "^Adam/moving_avg"
  input: "^moving_avg"
  attr {
    key: "dtype"
    value {
      type: DT_INT32
    }
  }
  attr {
    key: "value"
    value {
      tensor {
        dtype: DT_INT32
        tensor_shape {
          dim {
            size: 2
          }
        }
        tensor_content: "\377\377\377\377\001\000\000\000"
      }
    }
  }
}
node {
  name: "Adam/gradients/FullyConnected_2/Softmax_grad/Reshape"
  op: "Reshape"
  input: "Adam/gradients/FullyConnected_2/Softmax_grad/Sum"
  input: "Adam/gradients/FullyConnected_2/Softmax_grad/Reshape/shape"
  attr {
    key: "T"
    value {
      type: DT_FLOAT
    }
  }
  attr {
    key: "Tshape"
    value {
      type: DT_INT32
    }
  }
}
node {
  name: "Adam/gradients/FullyConnected_2/Softmax_grad/sub"
  op: "Sub"
  input: "Adam/gradients/AddN"
  input: "Adam/gradients/FullyConnected_2/Softmax_grad/Reshape"
  attr {
    key: "T"
    value {
      type: DT_FLOAT
    }
  }
}
node {
  name: "Adam/gradients/FullyConnected_2/Softmax_grad/mul_1"
  op: "Mul"
  input: "Adam/gradients/FullyConnected_2/Softmax_grad/sub"
  input: "FullyConnected_2/Softmax"
  attr {
    key: "T"
    value {
      type: DT_FLOAT
    }
  }
}
node {
  name: "Adam/gradients/FullyConnected_2/BiasAdd_grad/BiasAddGrad"
  op: "BiasAddGrad"
  input: "Adam/gradients/FullyConnected_2/Softmax_grad/mul_1"
  attr {
    key: "T"
    value {
      type: DT_FLOAT
    }
  }
  attr {
    key: "data_format"
    value {
      s: "NHWC"
    }
  }
}
node {
  name: "Adam/gradients/FullyConnected_2/MatMul_grad/MatMul"
  op: "MatMul"
  input: "Adam/gradients/FullyConnected_2/Softmax_grad/mul_1"
  input: "FullyConnected_2/W/read"
  attr {
    key: "T"
    value {
      type: DT_FLOAT
    }
  }
  attr {
    key: "transpose_a"
    value {
      b: false
    }
  }
  attr {
    key: "transpose_b"
    value {
      b: true
    }
  }
}
node {
  name: "Adam/gradients/FullyConnected_2/MatMul_grad/MatMul_1"
  op: "MatMul"
  input: "FullyConnected_1/BiasAdd"
  input: "Adam/gradients/FullyConnected_2/Softmax_grad/mul_1"
  attr {
    key: "T"
    value {
      type: DT_FLOAT
    }
  }
  attr {
    key: "transpose_a"
    value {
      b: true
    }
  }
  attr {
    key: "transpose_b"
    value {
      b: false
    }
  }
}
node {
  name: "Adam/gradients/FullyConnected_1/BiasAdd_grad/BiasAddGrad"
  op: "BiasAddGrad"
  input: "Adam/gradients/FullyConnected_2/MatMul_grad/MatMul"
  attr {
    key: "T"
    value {
      type: DT_FLOAT
    }
  }
  attr {
    key: "data_format"
    value {
      s: "NHWC"
    }
  }
}
node {
  name: "Adam/gradients/FullyConnected_1/MatMul_grad/MatMul"
  op: "MatMul"
  input: "Adam/gradients/FullyConnected_2/MatMul_grad/MatMul"
  input: "FullyConnected_1/W/read"
  attr {
    key: "T"
    value {
      type: DT_FLOAT
    }
  }
  attr {
    key: "transpose_a"
    value {
      b: false
    }
  }
  attr {
    key: "transpose_b"
    value {
      b: true
    }
  }
}
node {
  name: "Adam/gradients/FullyConnected_1/MatMul_grad/MatMul_1"
  op: "MatMul"
  input: "FullyConnected/BiasAdd"
  input: "Adam/gradients/FullyConnected_2/MatMul_grad/MatMul"
  attr {
    key: "T"
    value {
      type: DT_FLOAT
    }
  }
  attr {
    key: "transpose_a"
    value {
      b: true
    }
  }
  attr {
    key: "transpose_b"
    value {
      b: false
    }
  }
}
node {
  name: "Adam/gradients/FullyConnected/BiasAdd_grad/BiasAddGrad"
  op: "BiasAddGrad"
  input: "Adam/gradients/FullyConnected_1/MatMul_grad/MatMul"
  attr {
    key: "T"
    value {
      type: DT_FLOAT
    }
  }
  attr {
    key: "data_format"
    value {
      s: "NHWC"
    }
  }
}
node {
  name: "Adam/gradients/FullyConnected/MatMul_grad/MatMul"
  op: "MatMul"
  input: "Adam/gradients/FullyConnected_1/MatMul_grad/MatMul"
  input: "FullyConnected/W/read"
  attr {
    key: "T"
    value {
      type: DT_FLOAT
    }
  }
  attr {
    key: "transpose_a"
    value {
      b: false
    }
  }
  attr {
    key: "transpose_b"
    value {
      b: true
    }
  }
}
node {
  name: "Adam/gradients/FullyConnected/MatMul_grad/MatMul_1"
  op: "MatMul"
  input: "InputData/X"
  input: "Adam/gradients/FullyConnected_1/MatMul_grad/MatMul"
  attr {
    key: "T"
    value {
      type: DT_FLOAT
    }
  }
  attr {
    key: "transpose_a"
    value {
      b: true
    }
  }
  attr {
    key: "transpose_b"
    value {
      b: false
    }
  }
}
node {
  name: "Adam/global_norm/L2Loss"
  op: "L2Loss"
  input: "Adam/gradients/FullyConnected/MatMul_grad/MatMul_1"
  attr {
    key: "T"
    value {
      type: DT_FLOAT
    }
  }
  attr {
    key: "_class"
    value {
      list {
        s: "loc:@Adam/gradients/FullyConnected/MatMul_grad/MatMul_1"
      }
    }
  }
}
node {
  name: "Adam/global_norm/L2Loss_1"
  op: "L2Loss"
  input: "Adam/gradients/FullyConnected/BiasAdd_grad/BiasAddGrad"
  attr {
    key: "T"
    value {
      type: DT_FLOAT
    }
  }
  attr {
    key: "_class"
    value {
      list {
        s: "loc:@Adam/gradients/FullyConnected/BiasAdd_grad/BiasAddGrad"
      }
    }
  }
}
node {
  name: "Adam/global_norm/L2Loss_2"
  op: "L2Loss"
  input: "Adam/gradients/FullyConnected_1/MatMul_grad/MatMul_1"
  attr {
    key: "T"
    value {
      type: DT_FLOAT
    }
  }
  attr {
    key: "_class"
    value {
      list {
        s: "loc:@Adam/gradients/FullyConnected_1/MatMul_grad/MatMul_1"
      }
    }
  }
}
node {
  name: "Adam/global_norm/L2Loss_3"
  op: "L2Loss"
  input: "Adam/gradients/FullyConnected_1/BiasAdd_grad/BiasAddGrad"
  attr {
    key: "T"
    value {
      type: DT_FLOAT
    }
  }
  attr {
    key: "_class"
    value {
      list {
        s: "loc:@Adam/gradients/FullyConnected_1/BiasAdd_grad/BiasAddGrad"
      }
    }
  }
}
node {
  name: "Adam/global_norm/L2Loss_4"
  op: "L2Loss"
  input: "Adam/gradients/FullyConnected_2/MatMul_grad/MatMul_1"
  attr {
    key: "T"
    value {
      type: DT_FLOAT
    }
  }
  attr {
    key: "_class"
    value {
      list {
        s: "loc:@Adam/gradients/FullyConnected_2/MatMul_grad/MatMul_1"
      }
    }
  }
}
node {
  name: "Adam/global_norm/L2Loss_5"
  op: "L2Loss"
  input: "Adam/gradients/FullyConnected_2/BiasAdd_grad/BiasAddGrad"
  attr {
    key: "T"
    value {
      type: DT_FLOAT
    }
  }
  attr {
    key: "_class"
    value {
      list {
        s: "loc:@Adam/gradients/FullyConnected_2/BiasAdd_grad/BiasAddGrad"
      }
    }
  }
}
node {
  name: "Adam/global_norm/stack"
  op: "Pack"
  input: "Adam/global_norm/L2Loss"
  input: "Adam/global_norm/L2Loss_1"
  input: "Adam/global_norm/L2Loss_2"
  input: "Adam/global_norm/L2Loss_3"
  input: "Adam/global_norm/L2Loss_4"
  input: "Adam/global_norm/L2Loss_5"
  attr {
    key: "N"
    value {
      i: 6
    }
  }
  attr {
    key: "T"
    value {
      type: DT_FLOAT
    }
  }
  attr {
    key: "axis"
    value {
      i: 0
    }
  }
}
node {
  name: "Adam/global_norm/Const"
  op: "Const"
  input: "^Adam/moving_avg"
  input: "^moving_avg"
  attr {
    key: "dtype"
    value {
      type: DT_INT32
    }
  }
  attr {
    key: "value"
    value {
      tensor {
        dtype: DT_INT32
        tensor_shape {
          dim {
            size: 1
          }
        }
        int_val: 0
      }
    }
  }
}
node {
  name: "Adam/global_norm/Sum"
  op: "Sum"
  input: "Adam/global_norm/stack"
  input: "Adam/global_norm/Const"
  attr {
    key: "T"
    value {
      type: DT_FLOAT
    }
  }
  attr {
    key: "Tidx"
    value {
      type: DT_INT32
    }
  }
  attr {
    key: "keep_dims"
    value {
      b: false
    }
  }
}
node {
  name: "Adam/global_norm/Const_1"
  op: "Const"
  input: "^Adam/moving_avg"
  input: "^moving_avg"
  attr {
    key: "dtype"
    value {
      type: DT_FLOAT
    }
  }
  attr {
    key: "value"
    value {
      tensor {
        dtype: DT_FLOAT
        tensor_shape {
        }
        float_val: 2.0
      }
    }
  }
}
node {
  name: "Adam/global_norm/mul"
  op: "Mul"
  input: "Adam/global_norm/Sum"
  input: "Adam/global_norm/Const_1"
  attr {
    key: "T"
    value {
      type: DT_FLOAT
    }
  }
}
node {
  name: "Adam/global_norm/global_norm"
  op: "Sqrt"
  input: "Adam/global_norm/mul"
  attr {
    key: "T"
    value {
      type: DT_FLOAT
    }
  }
}
node {
  name: "Adam/clip_by_global_norm/truediv/x"
  op: "Const"
  input: "^Adam/moving_avg"
  input: "^moving_avg"
  attr {
    key: "dtype"
    value {
      type: DT_FLOAT
    }
  }
  attr {
    key: "value"
    value {
      tensor {
        dtype: DT_FLOAT
        tensor_shape {
        }
        float_val: 1.0
      }
    }
  }
}
node {
  name: "Adam/clip_by_global_norm/truediv"
  op: "RealDiv"
  input: "Adam/clip_by_global_norm/truediv/x"
  input: "Adam/global_norm/global_norm"
  attr {
    key: "T"
    value {
      type: DT_FLOAT
    }
  }
}
node {
  name: "Adam/clip_by_global_norm/Const"
  op: "Const"
  input: "^Adam/moving_avg"
  input: "^moving_avg"
  attr {
    key: "dtype"
    value {
      type: DT_FLOAT
    }
  }
  attr {
    key: "value"
    value {
      tensor {
        dtype: DT_FLOAT
        tensor_shape {
        }
        float_val: 1.0
      }
    }
  }
}
node {
  name: "Adam/clip_by_global_norm/truediv_1/y"
  op: "Const"
  input: "^Adam/moving_avg"
  input: "^moving_avg"
  attr {
    key: "dtype"
    value {
      type: DT_FLOAT
    }
  }
  attr {
    key: "value"
    value {
      tensor {
        dtype: DT_FLOAT
        tensor_shape {
        }
        float_val: 5.0
      }
    }
  }
}
node {
  name: "Adam/clip_by_global_norm/truediv_1"
  op: "RealDiv"
  input: "Adam/clip_by_global_norm/Const"
  input: "Adam/clip_by_global_norm/truediv_1/y"
  attr {
    key: "T"
    value {
      type: DT_FLOAT
    }
  }
}
node {
  name: "Adam/clip_by_global_norm/Minimum"
  op: "Minimum"
  input: "Adam/clip_by_global_norm/truediv"
  input: "Adam/clip_by_global_norm/truediv_1"
  attr {
    key: "T"
    value {
      type: DT_FLOAT
    }
  }
}
node {
  name: "Adam/clip_by_global_norm/mul/x"
  op: "Const"
  input: "^Adam/moving_avg"
  input: "^moving_avg"
  attr {
    key: "dtype"
    value {
      type: DT_FLOAT
    }
  }
  attr {
    key: "value"
    value {
      tensor {
        dtype: DT_FLOAT
        tensor_shape {
        }
        float_val: 5.0
      }
    }
  }
}
node {
  name: "Adam/clip_by_global_norm/mul"
  op: "Mul"
  input: "Adam/clip_by_global_norm/mul/x"
  input: "Adam/clip_by_global_norm/Minimum"
  attr {
    key: "T"
    value {
      type: DT_FLOAT
    }
  }
}
node {
  name: "Adam/clip_by_global_norm/mul_1"
  op: "Mul"
  input: "Adam/gradients/FullyConnected/MatMul_grad/MatMul_1"
  input: "Adam/clip_by_global_norm/mul"
  attr {
    key: "T"
    value {
      type: DT_FLOAT
    }
  }
  attr {
    key: "_class"
    value {
      list {
        s: "loc:@Adam/gradients/FullyConnected/MatMul_grad/MatMul_1"
      }
    }
  }
}
node {
  name: "Adam/clip_by_global_norm/Adam/clip_by_global_norm/_0"
  op: "Identity"
  input: "Adam/clip_by_global_norm/mul_1"
  attr {
    key: "T"
    value {
      type: DT_FLOAT
    }
  }
  attr {
    key: "_class"
    value {
      list {
        s: "loc:@Adam/gradients/FullyConnected/MatMul_grad/MatMul_1"
      }
    }
  }
}
node {
  name: "Adam/clip_by_global_norm/mul_2"
  op: "Mul"
  input: "Adam/gradients/FullyConnected/BiasAdd_grad/BiasAddGrad"
  input: "Adam/clip_by_global_norm/mul"
  attr {
    key: "T"
    value {
      type: DT_FLOAT
    }
  }
  attr {
    key: "_class"
    value {
      list {
        s: "loc:@Adam/gradients/FullyConnected/BiasAdd_grad/BiasAddGrad"
      }
    }
  }
}
node {
  name: "Adam/clip_by_global_norm/Adam/clip_by_global_norm/_1"
  op: "Identity"
  input: "Adam/clip_by_global_norm/mul_2"
  attr {
    key: "T"
    value {
      type: DT_FLOAT
    }
  }
  attr {
    key: "_class"
    value {
      list {
        s: "loc:@Adam/gradients/FullyConnected/BiasAdd_grad/BiasAddGrad"
      }
    }
  }
}
node {
  name: "Adam/clip_by_global_norm/mul_3"
  op: "Mul"
  input: "Adam/gradients/FullyConnected_1/MatMul_grad/MatMul_1"
  input: "Adam/clip_by_global_norm/mul"
  attr {
    key: "T"
    value {
      type: DT_FLOAT
    }
  }
  attr {
    key: "_class"
    value {
      list {
        s: "loc:@Adam/gradients/FullyConnected_1/MatMul_grad/MatMul_1"
      }
    }
  }
}
node {
  name: "Adam/clip_by_global_norm/Adam/clip_by_global_norm/_2"
  op: "Identity"
  input: "Adam/clip_by_global_norm/mul_3"
  attr {
    key: "T"
    value {
      type: DT_FLOAT
    }
  }
  attr {
    key: "_class"
    value {
      list {
        s: "loc:@Adam/gradients/FullyConnected_1/MatMul_grad/MatMul_1"
      }
    }
  }
}
node {
  name: "Adam/clip_by_global_norm/mul_4"
  op: "Mul"
  input: "Adam/gradients/FullyConnected_1/BiasAdd_grad/BiasAddGrad"
  input: "Adam/clip_by_global_norm/mul"
  attr {
    key: "T"
    value {
      type: DT_FLOAT
    }
  }
  attr {
    key: "_class"
    value {
      list {
        s: "loc:@Adam/gradients/FullyConnected_1/BiasAdd_grad/BiasAddGrad"
      }
    }
  }
}
node {
  name: "Adam/clip_by_global_norm/Adam/clip_by_global_norm/_3"
  op: "Identity"
  input: "Adam/clip_by_global_norm/mul_4"
  attr {
    key: "T"
    value {
      type: DT_FLOAT
    }
  }
  attr {
    key: "_class"
    value {
      list {
        s: "loc:@Adam/gradients/FullyConnected_1/BiasAdd_grad/BiasAddGrad"
      }
    }
  }
}
node {
  name: "Adam/clip_by_global_norm/mul_5"
  op: "Mul"
  input: "Adam/gradients/FullyConnected_2/MatMul_grad/MatMul_1"
  input: "Adam/clip_by_global_norm/mul"
  attr {
    key: "T"
    value {
      type: DT_FLOAT
    }
  }
  attr {
    key: "_class"
    value {
      list {
        s: "loc:@Adam/gradients/FullyConnected_2/MatMul_grad/MatMul_1"
      }
    }
  }
}
node {
  name: "Adam/clip_by_global_norm/Adam/clip_by_global_norm/_4"
  op: "Identity"
  input: "Adam/clip_by_global_norm/mul_5"
  attr {
    key: "T"
    value {
      type: DT_FLOAT
    }
  }
  attr {
    key: "_class"
    value {
      list {
        s: "loc:@Adam/gradients/FullyConnected_2/MatMul_grad/MatMul_1"
      }
    }
  }
}
node {
  name: "Adam/clip_by_global_norm/mul_6"
  op: "Mul"
  input: "Adam/gradients/FullyConnected_2/BiasAdd_grad/BiasAddGrad"
  input: "Adam/clip_by_global_norm/mul"
  attr {
    key: "T"
    value {
      type: DT_FLOAT
    }
  }
  attr {
    key: "_class"
    value {
      list {
        s: "loc:@Adam/gradients/FullyConnected_2/BiasAdd_grad/BiasAddGrad"
      }
    }
  }
}
node {
  name: "Adam/clip_by_global_norm/Adam/clip_by_global_norm/_5"
  op: "Identity"
  input: "Adam/clip_by_global_norm/mul_6"
  attr {
    key: "T"
    value {
      type: DT_FLOAT
    }
  }
  attr {
    key: "_class"
    value {
      list {
        s: "loc:@Adam/gradients/FullyConnected_2/BiasAdd_grad/BiasAddGrad"
      }
    }
  }
}
node {
  name: "Adam/beta1_power/initial_value"
  op: "Const"
  attr {
    key: "_class"
    value {
      list {
        s: "loc:@FullyConnected/W"
      }
    }
  }
  attr {
    key: "dtype"
    value {
      type: DT_FLOAT
    }
  }
  attr {
    key: "value"
    value {
      tensor {
        dtype: DT_FLOAT
        tensor_shape {
        }
        float_val: 0.8999999761581421
      }
    }
  }
}
node {
  name: "Adam/beta1_power"
  op: "VariableV2"
  attr {
    key: "_class"
    value {
      list {
        s: "loc:@FullyConnected/W"
      }
    }
  }
  attr {
    key: "container"
    value {
      s: ""
    }
  }
  attr {
    key: "dtype"
    value {
      type: DT_FLOAT
    }
  }
  attr {
    key: "shape"
    value {
      shape {
      }
    }
  }
  attr {
    key: "shared_name"
    value {
      s: ""
    }
  }
}
node {
  name: "Adam/beta1_power/Assign"
  op: "Assign"
  input: "Adam/beta1_power"
  input: "Adam/beta1_power/initial_value"
  attr {
    key: "T"
    value {
      type: DT_FLOAT
    }
  }
  attr {
    key: "_class"
    value {
      list {
        s: "loc:@FullyConnected/W"
      }
    }
  }
  attr {
    key: "use_locking"
    value {
      b: true
    }
  }
  attr {
    key: "validate_shape"
    value {
      b: true
    }
  }
}
node {
  name: "Adam/beta1_power/read"
  op: "Identity"
  input: "Adam/beta1_power"
  attr {
    key: "T"
    value {
      type: DT_FLOAT
    }
  }
  attr {
    key: "_class"
    value {
      list {
        s: "loc:@FullyConnected/W"
      }
    }
  }
}
node {
  name: "Adam/beta2_power/initial_value"
  op: "Const"
  attr {
    key: "_class"
    value {
      list {
        s: "loc:@FullyConnected/W"
      }
    }
  }
  attr {
    key: "dtype"
    value {
      type: DT_FLOAT
    }
  }
  attr {
    key: "value"
    value {
      tensor {
        dtype: DT_FLOAT
        tensor_shape {
        }
        float_val: 0.9990000128746033
      }
    }
  }
}
node {
  name: "Adam/beta2_power"
  op: "VariableV2"
  attr {
    key: "_class"
    value {
      list {
        s: "loc:@FullyConnected/W"
      }
    }
  }
  attr {
    key: "container"
    value {
      s: ""
    }
  }
  attr {
    key: "dtype"
    value {
      type: DT_FLOAT
    }
  }
  attr {
    key: "shape"
    value {
      shape {
      }
    }
  }
  attr {
    key: "shared_name"
    value {
      s: ""
    }
  }
}
node {
  name: "Adam/beta2_power/Assign"
  op: "Assign"
  input: "Adam/beta2_power"
  input: "Adam/beta2_power/initial_value"
  attr {
    key: "T"
    value {
      type: DT_FLOAT
    }
  }
  attr {
    key: "_class"
    value {
      list {
        s: "loc:@FullyConnected/W"
      }
    }
  }
  attr {
    key: "use_locking"
    value {
      b: true
    }
  }
  attr {
    key: "validate_shape"
    value {
      b: true
    }
  }
}
node {
  name: "Adam/beta2_power/read"
  op: "Identity"
  input: "Adam/beta2_power"
  attr {
    key: "T"
    value {
      type: DT_FLOAT
    }
  }
  attr {
    key: "_class"
    value {
      list {
        s: "loc:@FullyConnected/W"
      }
    }
  }
}
node {
  name: "FullyConnected/W/Adam/Initializer/zeros"
  op: "Const"
  attr {
    key: "_class"
    value {
      list {
        s: "loc:@FullyConnected/W"
      }
    }
  }
  attr {
    key: "dtype"
    value {
      type: DT_FLOAT
    }
  }
  attr {
    key: "value"
    value {
      tensor {
        dtype: DT_FLOAT
        tensor_shape {
          dim {
            size: 1421
          }
          dim {
            size: 8
          }
        }
        float_val: 0.0
      }
    }
  }
}
node {
  name: "FullyConnected/W/Adam"
  op: "VariableV2"
  attr {
    key: "_class"
    value {
      list {
        s: "loc:@FullyConnected/W"
      }
    }
  }
  attr {
    key: "container"
    value {
      s: ""
    }
  }
  attr {
    key: "dtype"
    value {
      type: DT_FLOAT
    }
  }
  attr {
    key: "shape"
    value {
      shape {
        dim {
          size: 1421
        }
        dim {
          size: 8
        }
      }
    }
  }
  attr {
    key: "shared_name"
    value {
      s: ""
    }
  }
}
node {
  name: "FullyConnected/W/Adam/Assign"
  op: "Assign"
  input: "FullyConnected/W/Adam"
  input: "FullyConnected/W/Adam/Initializer/zeros"
  attr {
    key: "T"
    value {
      type: DT_FLOAT
    }
  }
  attr {
    key: "_class"
    value {
      list {
        s: "loc:@FullyConnected/W"
      }
    }
  }
  attr {
    key: "use_locking"
    value {
      b: true
    }
  }
  attr {
    key: "validate_shape"
    value {
      b: true
    }
  }
}
node {
  name: "FullyConnected/W/Adam/read"
  op: "Identity"
  input: "FullyConnected/W/Adam"
  attr {
    key: "T"
    value {
      type: DT_FLOAT
    }
  }
  attr {
    key: "_class"
    value {
      list {
        s: "loc:@FullyConnected/W"
      }
    }
  }
}
node {
  name: "FullyConnected/W/Adam_1/Initializer/zeros"
  op: "Const"
  attr {
    key: "_class"
    value {
      list {
        s: "loc:@FullyConnected/W"
      }
    }
  }
  attr {
    key: "dtype"
    value {
      type: DT_FLOAT
    }
  }
  attr {
    key: "value"
    value {
      tensor {
        dtype: DT_FLOAT
        tensor_shape {
          dim {
            size: 1421
          }
          dim {
            size: 8
          }
        }
        float_val: 0.0
      }
    }
  }
}
node {
  name: "FullyConnected/W/Adam_1"
  op: "VariableV2"
  attr {
    key: "_class"
    value {
      list {
        s: "loc:@FullyConnected/W"
      }
    }
  }
  attr {
    key: "container"
    value {
      s: ""
    }
  }
  attr {
    key: "dtype"
    value {
      type: DT_FLOAT
    }
  }
  attr {
    key: "shape"
    value {
      shape {
        dim {
          size: 1421
        }
        dim {
          size: 8
        }
      }
    }
  }
  attr {
    key: "shared_name"
    value {
      s: ""
    }
  }
}
node {
  name: "FullyConnected/W/Adam_1/Assign"
  op: "Assign"
  input: "FullyConnected/W/Adam_1"
  input: "FullyConnected/W/Adam_1/Initializer/zeros"
  attr {
    key: "T"
    value {
      type: DT_FLOAT
    }
  }
  attr {
    key: "_class"
    value {
      list {
        s: "loc:@FullyConnected/W"
      }
    }
  }
  attr {
    key: "use_locking"
    value {
      b: true
    }
  }
  attr {
    key: "validate_shape"
    value {
      b: true
    }
  }
}
node {
  name: "FullyConnected/W/Adam_1/read"
  op: "Identity"
  input: "FullyConnected/W/Adam_1"
  attr {
    key: "T"
    value {
      type: DT_FLOAT
    }
  }
  attr {
    key: "_class"
    value {
      list {
        s: "loc:@FullyConnected/W"
      }
    }
  }
}
node {
  name: "FullyConnected/b/Adam/Initializer/zeros"
  op: "Const"
  attr {
    key: "_class"
    value {
      list {
        s: "loc:@FullyConnected/b"
      }
    }
  }
  attr {
    key: "dtype"
    value {
      type: DT_FLOAT
    }
  }
  attr {
    key: "value"
    value {
      tensor {
        dtype: DT_FLOAT
        tensor_shape {
          dim {
            size: 8
          }
        }
        float_val: 0.0
      }
    }
  }
}
node {
  name: "FullyConnected/b/Adam"
  op: "VariableV2"
  attr {
    key: "_class"
    value {
      list {
        s: "loc:@FullyConnected/b"
      }
    }
  }
  attr {
    key: "container"
    value {
      s: ""
    }
  }
  attr {
    key: "dtype"
    value {
      type: DT_FLOAT
    }
  }
  attr {
    key: "shape"
    value {
      shape {
        dim {
          size: 8
        }
      }
    }
  }
  attr {
    key: "shared_name"
    value {
      s: ""
    }
  }
}
node {
  name: "FullyConnected/b/Adam/Assign"
  op: "Assign"
  input: "FullyConnected/b/Adam"
  input: "FullyConnected/b/Adam/Initializer/zeros"
  attr {
    key: "T"
    value {
      type: DT_FLOAT
    }
  }
  attr {
    key: "_class"
    value {
      list {
        s: "loc:@FullyConnected/b"
      }
    }
  }
  attr {
    key: "use_locking"
    value {
      b: true
    }
  }
  attr {
    key: "validate_shape"
    value {
      b: true
    }
  }
}
node {
  name: "FullyConnected/b/Adam/read"
  op: "Identity"
  input: "FullyConnected/b/Adam"
  attr {
    key: "T"
    value {
      type: DT_FLOAT
    }
  }
  attr {
    key: "_class"
    value {
      list {
        s: "loc:@FullyConnected/b"
      }
    }
  }
}
node {
  name: "FullyConnected/b/Adam_1/Initializer/zeros"
  op: "Const"
  attr {
    key: "_class"
    value {
      list {
        s: "loc:@FullyConnected/b"
      }
    }
  }
  attr {
    key: "dtype"
    value {
      type: DT_FLOAT
    }
  }
  attr {
    key: "value"
    value {
      tensor {
        dtype: DT_FLOAT
        tensor_shape {
          dim {
            size: 8
          }
        }
        float_val: 0.0
      }
    }
  }
}
node {
  name: "FullyConnected/b/Adam_1"
  op: "VariableV2"
  attr {
    key: "_class"
    value {
      list {
        s: "loc:@FullyConnected/b"
      }
    }
  }
  attr {
    key: "container"
    value {
      s: ""
    }
  }
  attr {
    key: "dtype"
    value {
      type: DT_FLOAT
    }
  }
  attr {
    key: "shape"
    value {
      shape {
        dim {
          size: 8
        }
      }
    }
  }
  attr {
    key: "shared_name"
    value {
      s: ""
    }
  }
}
node {
  name: "FullyConnected/b/Adam_1/Assign"
  op: "Assign"
  input: "FullyConnected/b/Adam_1"
  input: "FullyConnected/b/Adam_1/Initializer/zeros"
  attr {
    key: "T"
    value {
      type: DT_FLOAT
    }
  }
  attr {
    key: "_class"
    value {
      list {
        s: "loc:@FullyConnected/b"
      }
    }
  }
  attr {
    key: "use_locking"
    value {
      b: true
    }
  }
  attr {
    key: "validate_shape"
    value {
      b: true
    }
  }
}
node {
  name: "FullyConnected/b/Adam_1/read"
  op: "Identity"
  input: "FullyConnected/b/Adam_1"
  attr {
    key: "T"
    value {
      type: DT_FLOAT
    }
  }
  attr {
    key: "_class"
    value {
      list {
        s: "loc:@FullyConnected/b"
      }
    }
  }
}
node {
  name: "FullyConnected_1/W/Adam/Initializer/zeros"
  op: "Const"
  attr {
    key: "_class"
    value {
      list {
        s: "loc:@FullyConnected_1/W"
      }
    }
  }
  attr {
    key: "dtype"
    value {
      type: DT_FLOAT
    }
  }
  attr {
    key: "value"
    value {
      tensor {
        dtype: DT_FLOAT
        tensor_shape {
          dim {
            size: 8
          }
          dim {
            size: 8
          }
        }
        float_val: 0.0
      }
    }
  }
}
node {
  name: "FullyConnected_1/W/Adam"
  op: "VariableV2"
  attr {
    key: "_class"
    value {
      list {
        s: "loc:@FullyConnected_1/W"
      }
    }
  }
  attr {
    key: "container"
    value {
      s: ""
    }
  }
  attr {
    key: "dtype"
    value {
      type: DT_FLOAT
    }
  }
  attr {
    key: "shape"
    value {
      shape {
        dim {
          size: 8
        }
        dim {
          size: 8
        }
      }
    }
  }
  attr {
    key: "shared_name"
    value {
      s: ""
    }
  }
}
node {
  name: "FullyConnected_1/W/Adam/Assign"
  op: "Assign"
  input: "FullyConnected_1/W/Adam"
  input: "FullyConnected_1/W/Adam/Initializer/zeros"
  attr {
    key: "T"
    value {
      type: DT_FLOAT
    }
  }
  attr {
    key: "_class"
    value {
      list {
        s: "loc:@FullyConnected_1/W"
      }
    }
  }
  attr {
    key: "use_locking"
    value {
      b: true
    }
  }
  attr {
    key: "validate_shape"
    value {
      b: true
    }
  }
}
node {
  name: "FullyConnected_1/W/Adam/read"
  op: "Identity"
  input: "FullyConnected_1/W/Adam"
  attr {
    key: "T"
    value {
      type: DT_FLOAT
    }
  }
  attr {
    key: "_class"
    value {
      list {
        s: "loc:@FullyConnected_1/W"
      }
    }
  }
}
node {
  name: "FullyConnected_1/W/Adam_1/Initializer/zeros"
  op: "Const"
  attr {
    key: "_class"
    value {
      list {
        s: "loc:@FullyConnected_1/W"
      }
    }
  }
  attr {
    key: "dtype"
    value {
      type: DT_FLOAT
    }
  }
  attr {
    key: "value"
    value {
      tensor {
        dtype: DT_FLOAT
        tensor_shape {
          dim {
            size: 8
          }
          dim {
            size: 8
          }
        }
        float_val: 0.0
      }
    }
  }
}
node {
  name: "FullyConnected_1/W/Adam_1"
  op: "VariableV2"
  attr {
    key: "_class"
    value {
      list {
        s: "loc:@FullyConnected_1/W"
      }
    }
  }
  attr {
    key: "container"
    value {
      s: ""
    }
  }
  attr {
    key: "dtype"
    value {
      type: DT_FLOAT
    }
  }
  attr {
    key: "shape"
    value {
      shape {
        dim {
          size: 8
        }
        dim {
          size: 8
        }
      }
    }
  }
  attr {
    key: "shared_name"
    value {
      s: ""
    }
  }
}
node {
  name: "FullyConnected_1/W/Adam_1/Assign"
  op: "Assign"
  input: "FullyConnected_1/W/Adam_1"
  input: "FullyConnected_1/W/Adam_1/Initializer/zeros"
  attr {
    key: "T"
    value {
      type: DT_FLOAT
    }
  }
  attr {
    key: "_class"
    value {
      list {
        s: "loc:@FullyConnected_1/W"
      }
    }
  }
  attr {
    key: "use_locking"
    value {
      b: true
    }
  }
  attr {
    key: "validate_shape"
    value {
      b: true
    }
  }
}
node {
  name: "FullyConnected_1/W/Adam_1/read"
  op: "Identity"
  input: "FullyConnected_1/W/Adam_1"
  attr {
    key: "T"
    value {
      type: DT_FLOAT
    }
  }
  attr {
    key: "_class"
    value {
      list {
        s: "loc:@FullyConnected_1/W"
      }
    }
  }
}
node {
  name: "FullyConnected_1/b/Adam/Initializer/zeros"
  op: "Const"
  attr {
    key: "_class"
    value {
      list {
        s: "loc:@FullyConnected_1/b"
      }
    }
  }
  attr {
    key: "dtype"
    value {
      type: DT_FLOAT
    }
  }
  attr {
    key: "value"
    value {
      tensor {
        dtype: DT_FLOAT
        tensor_shape {
          dim {
            size: 8
          }
        }
        float_val: 0.0
      }
    }
  }
}
node {
  name: "FullyConnected_1/b/Adam"
  op: "VariableV2"
  attr {
    key: "_class"
    value {
      list {
        s: "loc:@FullyConnected_1/b"
      }
    }
  }
  attr {
    key: "container"
    value {
      s: ""
    }
  }
  attr {
    key: "dtype"
    value {
      type: DT_FLOAT
    }
  }
  attr {
    key: "shape"
    value {
      shape {
        dim {
          size: 8
        }
      }
    }
  }
  attr {
    key: "shared_name"
    value {
      s: ""
    }
  }
}
node {
  name: "FullyConnected_1/b/Adam/Assign"
  op: "Assign"
  input: "FullyConnected_1/b/Adam"
  input: "FullyConnected_1/b/Adam/Initializer/zeros"
  attr {
    key: "T"
    value {
      type: DT_FLOAT
    }
  }
  attr {
    key: "_class"
    value {
      list {
        s: "loc:@FullyConnected_1/b"
      }
    }
  }
  attr {
    key: "use_locking"
    value {
      b: true
    }
  }
  attr {
    key: "validate_shape"
    value {
      b: true
    }
  }
}
node {
  name: "FullyConnected_1/b/Adam/read"
  op: "Identity"
  input: "FullyConnected_1/b/Adam"
  attr {
    key: "T"
    value {
      type: DT_FLOAT
    }
  }
  attr {
    key: "_class"
    value {
      list {
        s: "loc:@FullyConnected_1/b"
      }
    }
  }
}
node {
  name: "FullyConnected_1/b/Adam_1/Initializer/zeros"
  op: "Const"
  attr {
    key: "_class"
    value {
      list {
        s: "loc:@FullyConnected_1/b"
      }
    }
  }
  attr {
    key: "dtype"
    value {
      type: DT_FLOAT
    }
  }
  attr {
    key: "value"
    value {
      tensor {
        dtype: DT_FLOAT
        tensor_shape {
          dim {
            size: 8
          }
        }
        float_val: 0.0
      }
    }
  }
}
node {
  name: "FullyConnected_1/b/Adam_1"
  op: "VariableV2"
  attr {
    key: "_class"
    value {
      list {
        s: "loc:@FullyConnected_1/b"
      }
    }
  }
  attr {
    key: "container"
    value {
      s: ""
    }
  }
  attr {
    key: "dtype"
    value {
      type: DT_FLOAT
    }
  }
  attr {
    key: "shape"
    value {
      shape {
        dim {
          size: 8
        }
      }
    }
  }
  attr {
    key: "shared_name"
    value {
      s: ""
    }
  }
}
node {
  name: "FullyConnected_1/b/Adam_1/Assign"
  op: "Assign"
  input: "FullyConnected_1/b/Adam_1"
  input: "FullyConnected_1/b/Adam_1/Initializer/zeros"
  attr {
    key: "T"
    value {
      type: DT_FLOAT
    }
  }
  attr {
    key: "_class"
    value {
      list {
        s: "loc:@FullyConnected_1/b"
      }
    }
  }
  attr {
    key: "use_locking"
    value {
      b: true
    }
  }
  attr {
    key: "validate_shape"
    value {
      b: true
    }
  }
}
node {
  name: "FullyConnected_1/b/Adam_1/read"
  op: "Identity"
  input: "FullyConnected_1/b/Adam_1"
  attr {
    key: "T"
    value {
      type: DT_FLOAT
    }
  }
  attr {
    key: "_class"
    value {
      list {
        s: "loc:@FullyConnected_1/b"
      }
    }
  }
}
node {
  name: "FullyConnected_2/W/Adam/Initializer/zeros"
  op: "Const"
  attr {
    key: "_class"
    value {
      list {
        s: "loc:@FullyConnected_2/W"
      }
    }
  }
  attr {
    key: "dtype"
    value {
      type: DT_FLOAT
    }
  }
  attr {
    key: "value"
    value {
      tensor {
        dtype: DT_FLOAT
        tensor_shape {
          dim {
            size: 8
          }
          dim {
            size: 51
          }
        }
        float_val: 0.0
      }
    }
  }
}
node {
  name: "FullyConnected_2/W/Adam"
  op: "VariableV2"
  attr {
    key: "_class"
    value {
      list {
        s: "loc:@FullyConnected_2/W"
      }
    }
  }
  attr {
    key: "container"
    value {
      s: ""
    }
  }
  attr {
    key: "dtype"
    value {
      type: DT_FLOAT
    }
  }
  attr {
    key: "shape"
    value {
      shape {
        dim {
          size: 8
        }
        dim {
          size: 51
        }
      }
    }
  }
  attr {
    key: "shared_name"
    value {
      s: ""
    }
  }
}
node {
  name: "FullyConnected_2/W/Adam/Assign"
  op: "Assign"
  input: "FullyConnected_2/W/Adam"
  input: "FullyConnected_2/W/Adam/Initializer/zeros"
  attr {
    key: "T"
    value {
      type: DT_FLOAT
    }
  }
  attr {
    key: "_class"
    value {
      list {
        s: "loc:@FullyConnected_2/W"
      }
    }
  }
  attr {
    key: "use_locking"
    value {
      b: true
    }
  }
  attr {
    key: "validate_shape"
    value {
      b: true
    }
  }
}
node {
  name: "FullyConnected_2/W/Adam/read"
  op: "Identity"
  input: "FullyConnected_2/W/Adam"
  attr {
    key: "T"
    value {
      type: DT_FLOAT
    }
  }
  attr {
    key: "_class"
    value {
      list {
        s: "loc:@FullyConnected_2/W"
      }
    }
  }
}
node {
  name: "FullyConnected_2/W/Adam_1/Initializer/zeros"
  op: "Const"
  attr {
    key: "_class"
    value {
      list {
        s: "loc:@FullyConnected_2/W"
      }
    }
  }
  attr {
    key: "dtype"
    value {
      type: DT_FLOAT
    }
  }
  attr {
    key: "value"
    value {
      tensor {
        dtype: DT_FLOAT
        tensor_shape {
          dim {
            size: 8
          }
          dim {
            size: 51
          }
        }
        float_val: 0.0
      }
    }
  }
}
node {
  name: "FullyConnected_2/W/Adam_1"
  op: "VariableV2"
  attr {
    key: "_class"
    value {
      list {
        s: "loc:@FullyConnected_2/W"
      }
    }
  }
  attr {
    key: "container"
    value {
      s: ""
    }
  }
  attr {
    key: "dtype"
    value {
      type: DT_FLOAT
    }
  }
  attr {
    key: "shape"
    value {
      shape {
        dim {
          size: 8
        }
        dim {
          size: 51
        }
      }
    }
  }
  attr {
    key: "shared_name"
    value {
      s: ""
    }
  }
}
node {
  name: "FullyConnected_2/W/Adam_1/Assign"
  op: "Assign"
  input: "FullyConnected_2/W/Adam_1"
  input: "FullyConnected_2/W/Adam_1/Initializer/zeros"
  attr {
    key: "T"
    value {
      type: DT_FLOAT
    }
  }
  attr {
    key: "_class"
    value {
      list {
        s: "loc:@FullyConnected_2/W"
      }
    }
  }
  attr {
    key: "use_locking"
    value {
      b: true
    }
  }
  attr {
    key: "validate_shape"
    value {
      b: true
    }
  }
}
node {
  name: "FullyConnected_2/W/Adam_1/read"
  op: "Identity"
  input: "FullyConnected_2/W/Adam_1"
  attr {
    key: "T"
    value {
      type: DT_FLOAT
    }
  }
  attr {
    key: "_class"
    value {
      list {
        s: "loc:@FullyConnected_2/W"
      }
    }
  }
}
node {
  name: "FullyConnected_2/b/Adam/Initializer/zeros"
  op: "Const"
  attr {
    key: "_class"
    value {
      list {
        s: "loc:@FullyConnected_2/b"
      }
    }
  }
  attr {
    key: "dtype"
    value {
      type: DT_FLOAT
    }
  }
  attr {
    key: "value"
    value {
      tensor {
        dtype: DT_FLOAT
        tensor_shape {
          dim {
            size: 51
          }
        }
        float_val: 0.0
      }
    }
  }
}
node {
  name: "FullyConnected_2/b/Adam"
  op: "VariableV2"
  attr {
    key: "_class"
    value {
      list {
        s: "loc:@FullyConnected_2/b"
      }
    }
  }
  attr {
    key: "container"
    value {
      s: ""
    }
  }
  attr {
    key: "dtype"
    value {
      type: DT_FLOAT
    }
  }
  attr {
    key: "shape"
    value {
      shape {
        dim {
          size: 51
        }
      }
    }
  }
  attr {
    key: "shared_name"
    value {
      s: ""
    }
  }
}
node {
  name: "FullyConnected_2/b/Adam/Assign"
  op: "Assign"
  input: "FullyConnected_2/b/Adam"
  input: "FullyConnected_2/b/Adam/Initializer/zeros"
  attr {
    key: "T"
    value {
      type: DT_FLOAT
    }
  }
  attr {
    key: "_class"
    value {
      list {
        s: "loc:@FullyConnected_2/b"
      }
    }
  }
  attr {
    key: "use_locking"
    value {
      b: true
    }
  }
  attr {
    key: "validate_shape"
    value {
      b: true
    }
  }
}
node {
  name: "FullyConnected_2/b/Adam/read"
  op: "Identity"
  input: "FullyConnected_2/b/Adam"
  attr {
    key: "T"
    value {
      type: DT_FLOAT
    }
  }
  attr {
    key: "_class"
    value {
      list {
        s: "loc:@FullyConnected_2/b"
      }
    }
  }
}
node {
  name: "FullyConnected_2/b/Adam_1/Initializer/zeros"
  op: "Const"
  attr {
    key: "_class"
    value {
      list {
        s: "loc:@FullyConnected_2/b"
      }
    }
  }
  attr {
    key: "dtype"
    value {
      type: DT_FLOAT
    }
  }
  attr {
    key: "value"
    value {
      tensor {
        dtype: DT_FLOAT
        tensor_shape {
          dim {
            size: 51
          }
        }
        float_val: 0.0
      }
    }
  }
}
node {
  name: "FullyConnected_2/b/Adam_1"
  op: "VariableV2"
  attr {
    key: "_class"
    value {
      list {
        s: "loc:@FullyConnected_2/b"
      }
    }
  }
  attr {
    key: "container"
    value {
      s: ""
    }
  }
  attr {
    key: "dtype"
    value {
      type: DT_FLOAT
    }
  }
  attr {
    key: "shape"
    value {
      shape {
        dim {
          size: 51
        }
      }
    }
  }
  attr {
    key: "shared_name"
    value {
      s: ""
    }
  }
}
node {
  name: "FullyConnected_2/b/Adam_1/Assign"
  op: "Assign"
  input: "FullyConnected_2/b/Adam_1"
  input: "FullyConnected_2/b/Adam_1/Initializer/zeros"
  attr {
    key: "T"
    value {
      type: DT_FLOAT
    }
  }
  attr {
    key: "_class"
    value {
      list {
        s: "loc:@FullyConnected_2/b"
      }
    }
  }
  attr {
    key: "use_locking"
    value {
      b: true
    }
  }
  attr {
    key: "validate_shape"
    value {
      b: true
    }
  }
}
node {
  name: "FullyConnected_2/b/Adam_1/read"
  op: "Identity"
  input: "FullyConnected_2/b/Adam_1"
  attr {
    key: "T"
    value {
      type: DT_FLOAT
    }
  }
  attr {
    key: "_class"
    value {
      list {
        s: "loc:@FullyConnected_2/b"
      }
    }
  }
}
node {
  name: "Adam/apply_grad_op_0/learning_rate"
  op: "Const"
  attr {
    key: "dtype"
    value {
      type: DT_FLOAT
    }
  }
  attr {
    key: "value"
    value {
      tensor {
        dtype: DT_FLOAT
        tensor_shape {
        }
        float_val: 0.0010000000474974513
      }
    }
  }
}
node {
  name: "Adam/apply_grad_op_0/beta1"
  op: "Const"
  attr {
    key: "dtype"
    value {
      type: DT_FLOAT
    }
  }
  attr {
    key: "value"
    value {
      tensor {
        dtype: DT_FLOAT
        tensor_shape {
        }
        float_val: 0.8999999761581421
      }
    }
  }
}
node {
  name: "Adam/apply_grad_op_0/beta2"
  op: "Const"
  attr {
    key: "dtype"
    value {
      type: DT_FLOAT
    }
  }
  attr {
    key: "value"
    value {
      tensor {
        dtype: DT_FLOAT
        tensor_shape {
        }
        float_val: 0.9990000128746033
      }
    }
  }
}
node {
  name: "Adam/apply_grad_op_0/epsilon"
  op: "Const"
  attr {
    key: "dtype"
    value {
      type: DT_FLOAT
    }
  }
  attr {
    key: "value"
    value {
      tensor {
        dtype: DT_FLOAT
        tensor_shape {
        }
        float_val: 9.99999993922529e-09
      }
    }
  }
}
node {
  name: "Adam/apply_grad_op_0/update_FullyConnected/W/ApplyAdam"
  op: "ApplyAdam"
  input: "FullyConnected/W"
  input: "FullyConnected/W/Adam"
  input: "FullyConnected/W/Adam_1"
  input: "Adam/beta1_power/read"
  input: "Adam/beta2_power/read"
  input: "Adam/apply_grad_op_0/learning_rate"
  input: "Adam/apply_grad_op_0/beta1"
  input: "Adam/apply_grad_op_0/beta2"
  input: "Adam/apply_grad_op_0/epsilon"
  input: "Adam/clip_by_global_norm/Adam/clip_by_global_norm/_0"
  attr {
    key: "T"
    value {
      type: DT_FLOAT
    }
  }
  attr {
    key: "_class"
    value {
      list {
        s: "loc:@FullyConnected/W"
      }
    }
  }
  attr {
    key: "use_locking"
    value {
      b: false
    }
  }
  attr {
    key: "use_nesterov"
    value {
      b: false
    }
  }
}
node {
  name: "Adam/apply_grad_op_0/update_FullyConnected/b/ApplyAdam"
  op: "ApplyAdam"
  input: "FullyConnected/b"
  input: "FullyConnected/b/Adam"
  input: "FullyConnected/b/Adam_1"
  input: "Adam/beta1_power/read"
  input: "Adam/beta2_power/read"
  input: "Adam/apply_grad_op_0/learning_rate"
  input: "Adam/apply_grad_op_0/beta1"
  input: "Adam/apply_grad_op_0/beta2"
  input: "Adam/apply_grad_op_0/epsilon"
  input: "Adam/clip_by_global_norm/Adam/clip_by_global_norm/_1"
  attr {
    key: "T"
    value {
      type: DT_FLOAT
    }
  }
  attr {
    key: "_class"
    value {
      list {
        s: "loc:@FullyConnected/b"
      }
    }
  }
  attr {
    key: "use_locking"
    value {
      b: false
    }
  }
  attr {
    key: "use_nesterov"
    value {
      b: false
    }
  }
}
node {
  name: "Adam/apply_grad_op_0/update_FullyConnected_1/W/ApplyAdam"
  op: "ApplyAdam"
  input: "FullyConnected_1/W"
  input: "FullyConnected_1/W/Adam"
  input: "FullyConnected_1/W/Adam_1"
  input: "Adam/beta1_power/read"
  input: "Adam/beta2_power/read"
  input: "Adam/apply_grad_op_0/learning_rate"
  input: "Adam/apply_grad_op_0/beta1"
  input: "Adam/apply_grad_op_0/beta2"
  input: "Adam/apply_grad_op_0/epsilon"
  input: "Adam/clip_by_global_norm/Adam/clip_by_global_norm/_2"
  attr {
    key: "T"
    value {
      type: DT_FLOAT
    }
  }
  attr {
    key: "_class"
    value {
      list {
        s: "loc:@FullyConnected_1/W"
      }
    }
  }
  attr {
    key: "use_locking"
    value {
      b: false
    }
  }
  attr {
    key: "use_nesterov"
    value {
      b: false
    }
  }
}
node {
  name: "Adam/apply_grad_op_0/update_FullyConnected_1/b/ApplyAdam"
  op: "ApplyAdam"
  input: "FullyConnected_1/b"
  input: "FullyConnected_1/b/Adam"
  input: "FullyConnected_1/b/Adam_1"
  input: "Adam/beta1_power/read"
  input: "Adam/beta2_power/read"
  input: "Adam/apply_grad_op_0/learning_rate"
  input: "Adam/apply_grad_op_0/beta1"
  input: "Adam/apply_grad_op_0/beta2"
  input: "Adam/apply_grad_op_0/epsilon"
  input: "Adam/clip_by_global_norm/Adam/clip_by_global_norm/_3"
  attr {
    key: "T"
    value {
      type: DT_FLOAT
    }
  }
  attr {
    key: "_class"
    value {
      list {
        s: "loc:@FullyConnected_1/b"
      }
    }
  }
  attr {
    key: "use_locking"
    value {
      b: false
    }
  }
  attr {
    key: "use_nesterov"
    value {
      b: false
    }
  }
}
node {
  name: "Adam/apply_grad_op_0/update_FullyConnected_2/W/ApplyAdam"
  op: "ApplyAdam"
  input: "FullyConnected_2/W"
  input: "FullyConnected_2/W/Adam"
  input: "FullyConnected_2/W/Adam_1"
  input: "Adam/beta1_power/read"
  input: "Adam/beta2_power/read"
  input: "Adam/apply_grad_op_0/learning_rate"
  input: "Adam/apply_grad_op_0/beta1"
  input: "Adam/apply_grad_op_0/beta2"
  input: "Adam/apply_grad_op_0/epsilon"
  input: "Adam/clip_by_global_norm/Adam/clip_by_global_norm/_4"
  attr {
    key: "T"
    value {
      type: DT_FLOAT
    }
  }
  attr {
    key: "_class"
    value {
      list {
        s: "loc:@FullyConnected_2/W"
      }
    }
  }
  attr {
    key: "use_locking"
    value {
      b: false
    }
  }
  attr {
    key: "use_nesterov"
    value {
      b: false
    }
  }
}
node {
  name: "Adam/apply_grad_op_0/update_FullyConnected_2/b/ApplyAdam"
  op: "ApplyAdam"
  input: "FullyConnected_2/b"
  input: "FullyConnected_2/b/Adam"
  input: "FullyConnected_2/b/Adam_1"
  input: "Adam/beta1_power/read"
  input: "Adam/beta2_power/read"
  input: "Adam/apply_grad_op_0/learning_rate"
  input: "Adam/apply_grad_op_0/beta1"
  input: "Adam/apply_grad_op_0/beta2"
  input: "Adam/apply_grad_op_0/epsilon"
  input: "Adam/clip_by_global_norm/Adam/clip_by_global_norm/_5"
  attr {
    key: "T"
    value {
      type: DT_FLOAT
    }
  }
  attr {
    key: "_class"
    value {
      list {
        s: "loc:@FullyConnected_2/b"
      }
    }
  }
  attr {
    key: "use_locking"
    value {
      b: false
    }
  }
  attr {
    key: "use_nesterov"
    value {
      b: false
    }
  }
}
node {
  name: "Adam/apply_grad_op_0/mul"
  op: "Mul"
  input: "Adam/beta1_power/read"
  input: "Adam/apply_grad_op_0/beta1"
  input: "^Adam/apply_grad_op_0/update_FullyConnected/W/ApplyAdam"
  input: "^Adam/apply_grad_op_0/update_FullyConnected/b/ApplyAdam"
  input: "^Adam/apply_grad_op_0/update_FullyConnected_1/W/ApplyAdam"
  input: "^Adam/apply_grad_op_0/update_FullyConnected_1/b/ApplyAdam"
  input: "^Adam/apply_grad_op_0/update_FullyConnected_2/W/ApplyAdam"
  input: "^Adam/apply_grad_op_0/update_FullyConnected_2/b/ApplyAdam"
  attr {
    key: "T"
    value {
      type: DT_FLOAT
    }
  }
  attr {
    key: "_class"
    value {
      list {
        s: "loc:@FullyConnected/W"
      }
    }
  }
}
node {
  name: "Adam/apply_grad_op_0/Assign"
  op: "Assign"
  input: "Adam/beta1_power"
  input: "Adam/apply_grad_op_0/mul"
  attr {
    key: "T"
    value {
      type: DT_FLOAT
    }
  }
  attr {
    key: "_class"
    value {
      list {
        s: "loc:@FullyConnected/W"
      }
    }
  }
  attr {
    key: "use_locking"
    value {
      b: false
    }
  }
  attr {
    key: "validate_shape"
    value {
      b: true
    }
  }
}
node {
  name: "Adam/apply_grad_op_0/mul_1"
  op: "Mul"
  input: "Adam/beta2_power/read"
  input: "Adam/apply_grad_op_0/beta2"
  input: "^Adam/apply_grad_op_0/update_FullyConnected/W/ApplyAdam"
  input: "^Adam/apply_grad_op_0/update_FullyConnected/b/ApplyAdam"
  input: "^Adam/apply_grad_op_0/update_FullyConnected_1/W/ApplyAdam"
  input: "^Adam/apply_grad_op_0/update_FullyConnected_1/b/ApplyAdam"
  input: "^Adam/apply_grad_op_0/update_FullyConnected_2/W/ApplyAdam"
  input: "^Adam/apply_grad_op_0/update_FullyConnected_2/b/ApplyAdam"
  attr {
    key: "T"
    value {
      type: DT_FLOAT
    }
  }
  attr {
    key: "_class"
    value {
      list {
        s: "loc:@FullyConnected/W"
      }
    }
  }
}
node {
  name: "Adam/apply_grad_op_0/Assign_1"
  op: "Assign"
  input: "Adam/beta2_power"
  input: "Adam/apply_grad_op_0/mul_1"
  attr {
    key: "T"
    value {
      type: DT_FLOAT
    }
  }
  attr {
    key: "_class"
    value {
      list {
        s: "loc:@FullyConnected/W"
      }
    }
  }
  attr {
    key: "use_locking"
    value {
      b: false
    }
  }
  attr {
    key: "validate_shape"
    value {
      b: true
    }
  }
}
node {
  name: "Adam/apply_grad_op_0/update"
  op: "NoOp"
  input: "^Adam/apply_grad_op_0/update_FullyConnected/W/ApplyAdam"
  input: "^Adam/apply_grad_op_0/update_FullyConnected/b/ApplyAdam"
  input: "^Adam/apply_grad_op_0/update_FullyConnected_1/W/ApplyAdam"
  input: "^Adam/apply_grad_op_0/update_FullyConnected_1/b/ApplyAdam"
  input: "^Adam/apply_grad_op_0/update_FullyConnected_2/W/ApplyAdam"
  input: "^Adam/apply_grad_op_0/update_FullyConnected_2/b/ApplyAdam"
  input: "^Adam/apply_grad_op_0/Assign"
  input: "^Adam/apply_grad_op_0/Assign_1"
}
node {
  name: "Adam/apply_grad_op_0/value"
  op: "Const"
  input: "^Adam/apply_grad_op_0/update"
  attr {
    key: "_class"
    value {
      list {
        s: "loc:@Training_step"
      }
    }
  }
  attr {
    key: "dtype"
    value {
      type: DT_FLOAT
    }
  }
  attr {
    key: "value"
    value {
      tensor {
        dtype: DT_FLOAT
        tensor_shape {
        }
        float_val: 1.0
      }
    }
  }
}
node {
  name: "Adam/apply_grad_op_0"
  op: "AssignAdd"
  input: "Training_step"
  input: "Adam/apply_grad_op_0/value"
  attr {
    key: "T"
    value {
      type: DT_FLOAT
    }
  }
  attr {
    key: "_class"
    value {
      list {
        s: "loc:@Training_step"
      }
    }
  }
  attr {
    key: "use_locking"
    value {
      b: false
    }
  }
}
node {
  name: "Adam/Merge/MergeSummary"
  op: "MergeSummary"
  input: "Loss"
  input: "Adam/Loss/raw"
  attr {
    key: "N"
    value {
      i: 2
    }
  }
}
node {
  name: "Adam/train_op_0"
  op: "NoOp"
  input: "^Adam/apply_grad_op_0"
}
node {
  name: "save/Const"
  op: "Const"
  attr {
    key: "dtype"
    value {
      type: DT_STRING
    }
  }
  attr {
    key: "value"
    value {
      tensor {
        dtype: DT_STRING
        tensor_shape {
        }
        string_val: "model"
      }
    }
  }
}
node {
  name: "save/SaveV2/tensor_names"
  op: "Const"
  attr {
    key: "dtype"
    value {
      type: DT_STRING
    }
  }
  attr {
    key: "value"
    value {
      tensor {
        dtype: DT_STRING
        tensor_shape {
          dim {
            size: 27
          }
        }
        string_val: "Accuracy/Mean/moving_avg"
        string_val: "Adam/beta1_power"
        string_val: "Adam/beta2_power"
        string_val: "Crossentropy/Mean/moving_avg"
        string_val: "FullyConnected/W"
        string_val: "FullyConnected/W/Adam"
        string_val: "FullyConnected/W/Adam_1"
        string_val: "FullyConnected/b"
        string_val: "FullyConnected/b/Adam"
        string_val: "FullyConnected/b/Adam_1"
        string_val: "FullyConnected_1/W"
        string_val: "FullyConnected_1/W/Adam"
        string_val: "FullyConnected_1/W/Adam_1"
        string_val: "FullyConnected_1/b"
        string_val: "FullyConnected_1/b/Adam"
        string_val: "FullyConnected_1/b/Adam_1"
        string_val: "FullyConnected_2/W"
        string_val: "FullyConnected_2/W/Adam"
        string_val: "FullyConnected_2/W/Adam_1"
        string_val: "FullyConnected_2/b"
        string_val: "FullyConnected_2/b/Adam"
        string_val: "FullyConnected_2/b/Adam_1"
        string_val: "Global_Step"
        string_val: "Training_step"
        string_val: "is_training"
        string_val: "val_acc"
        string_val: "val_loss"
      }
    }
  }
}
node {
  name: "save/SaveV2/shape_and_slices"
  op: "Const"
  attr {
    key: "dtype"
    value {
      type: DT_STRING
    }
  }
  attr {
    key: "value"
    value {
      tensor {
        dtype: DT_STRING
        tensor_shape {
          dim {
            size: 27
          }
        }
        string_val: ""
        string_val: ""
        string_val: ""
        string_val: ""
        string_val: ""
        string_val: ""
        string_val: ""
        string_val: ""
        string_val: ""
        string_val: ""
        string_val: ""
        string_val: ""
        string_val: ""
        string_val: ""
        string_val: ""
        string_val: ""
        string_val: ""
        string_val: ""
        string_val: ""
        string_val: ""
        string_val: ""
        string_val: ""
        string_val: ""
        string_val: ""
        string_val: ""
        string_val: ""
        string_val: ""
      }
    }
  }
}
node {
  name: "save/SaveV2"
  op: "SaveV2"
  input: "save/Const"
  input: "save/SaveV2/tensor_names"
  input: "save/SaveV2/shape_and_slices"
  input: "Accuracy/Mean/moving_avg"
  input: "Adam/beta1_power"
  input: "Adam/beta2_power"
  input: "Crossentropy/Mean/moving_avg"
  input: "FullyConnected/W"
  input: "FullyConnected/W/Adam"
  input: "FullyConnected/W/Adam_1"
  input: "FullyConnected/b"
  input: "FullyConnected/b/Adam"
  input: "FullyConnected/b/Adam_1"
  input: "FullyConnected_1/W"
  input: "FullyConnected_1/W/Adam"
  input: "FullyConnected_1/W/Adam_1"
  input: "FullyConnected_1/b"
  input: "FullyConnected_1/b/Adam"
  input: "FullyConnected_1/b/Adam_1"
  input: "FullyConnected_2/W"
  input: "FullyConnected_2/W/Adam"
  input: "FullyConnected_2/W/Adam_1"
  input: "FullyConnected_2/b"
  input: "FullyConnected_2/b/Adam"
  input: "FullyConnected_2/b/Adam_1"
  input: "Global_Step"
  input: "Training_step"
  input: "is_training"
  input: "val_acc"
  input: "val_loss"
  attr {
    key: "dtypes"
    value {
      list {
        type: DT_FLOAT
        type: DT_FLOAT
        type: DT_FLOAT
        type: DT_FLOAT
        type: DT_FLOAT
        type: DT_FLOAT
        type: DT_FLOAT
        type: DT_FLOAT
        type: DT_FLOAT
        type: DT_FLOAT
        type: DT_FLOAT
        type: DT_FLOAT
        type: DT_FLOAT
        type: DT_FLOAT
        type: DT_FLOAT
        type: DT_FLOAT
        type: DT_FLOAT
        type: DT_FLOAT
        type: DT_FLOAT
        type: DT_FLOAT
        type: DT_FLOAT
        type: DT_FLOAT
        type: DT_FLOAT
        type: DT_FLOAT
        type: DT_BOOL
        type: DT_FLOAT
        type: DT_FLOAT
      }
    }
  }
}
node {
  name: "save/control_dependency"
  op: "Identity"
  input: "save/Const"
  input: "^save/SaveV2"
  attr {
    key: "T"
    value {
      type: DT_STRING
    }
  }
  attr {
    key: "_class"
    value {
      list {
        s: "loc:@save/Const"
      }
    }
  }
}
node {
  name: "save/RestoreV2/tensor_names"
  op: "Const"
  attr {
    key: "dtype"
    value {
      type: DT_STRING
    }
  }
  attr {
    key: "value"
    value {
      tensor {
        dtype: DT_STRING
        tensor_shape {
          dim {
            size: 1
          }
        }
        string_val: "Accuracy/Mean/moving_avg"
      }
    }
  }
}
node {
  name: "save/RestoreV2/shape_and_slices"
  op: "Const"
  attr {
    key: "dtype"
    value {
      type: DT_STRING
    }
  }
  attr {
    key: "value"
    value {
      tensor {
        dtype: DT_STRING
        tensor_shape {
          dim {
            size: 1
          }
        }
        string_val: ""
      }
    }
  }
}
node {
  name: "save/RestoreV2"
  op: "RestoreV2"
  input: "save/Const"
  input: "save/RestoreV2/tensor_names"
  input: "save/RestoreV2/shape_and_slices"
  attr {
    key: "dtypes"
    value {
      list {
        type: DT_FLOAT
      }
    }
  }
}
node {
  name: "save/Assign"
  op: "Assign"
  input: "Accuracy/Mean/moving_avg"
  input: "save/RestoreV2"
  attr {
    key: "T"
    value {
      type: DT_FLOAT
    }
  }
  attr {
    key: "_class"
    value {
      list {
        s: "loc:@Accuracy/Mean/moving_avg"
      }
    }
  }
  attr {
    key: "use_locking"
    value {
      b: true
    }
  }
  attr {
    key: "validate_shape"
    value {
      b: true
    }
  }
}
node {
  name: "save/RestoreV2_1/tensor_names"
  op: "Const"
  attr {
    key: "dtype"
    value {
      type: DT_STRING
    }
  }
  attr {
    key: "value"
    value {
      tensor {
        dtype: DT_STRING
        tensor_shape {
          dim {
            size: 1
          }
        }
        string_val: "Adam/beta1_power"
      }
    }
  }
}
node {
  name: "save/RestoreV2_1/shape_and_slices"
  op: "Const"
  attr {
    key: "dtype"
    value {
      type: DT_STRING
    }
  }
  attr {
    key: "value"
    value {
      tensor {
        dtype: DT_STRING
        tensor_shape {
          dim {
            size: 1
          }
        }
        string_val: ""
      }
    }
  }
}
node {
  name: "save/RestoreV2_1"
  op: "RestoreV2"
  input: "save/Const"
  input: "save/RestoreV2_1/tensor_names"
  input: "save/RestoreV2_1/shape_and_slices"
  attr {
    key: "dtypes"
    value {
      list {
        type: DT_FLOAT
      }
    }
  }
}
node {
  name: "save/Assign_1"
  op: "Assign"
  input: "Adam/beta1_power"
  input: "save/RestoreV2_1"
  attr {
    key: "T"
    value {
      type: DT_FLOAT
    }
  }
  attr {
    key: "_class"
    value {
      list {
        s: "loc:@FullyConnected/W"
      }
    }
  }
  attr {
    key: "use_locking"
    value {
      b: true
    }
  }
  attr {
    key: "validate_shape"
    value {
      b: true
    }
  }
}
node {
  name: "save/RestoreV2_2/tensor_names"
  op: "Const"
  attr {
    key: "dtype"
    value {
      type: DT_STRING
    }
  }
  attr {
    key: "value"
    value {
      tensor {
        dtype: DT_STRING
        tensor_shape {
          dim {
            size: 1
          }
        }
        string_val: "Adam/beta2_power"
      }
    }
  }
}
node {
  name: "save/RestoreV2_2/shape_and_slices"
  op: "Const"
  attr {
    key: "dtype"
    value {
      type: DT_STRING
    }
  }
  attr {
    key: "value"
    value {
      tensor {
        dtype: DT_STRING
        tensor_shape {
          dim {
            size: 1
          }
        }
        string_val: ""
      }
    }
  }
}
node {
  name: "save/RestoreV2_2"
  op: "RestoreV2"
  input: "save/Const"
  input: "save/RestoreV2_2/tensor_names"
  input: "save/RestoreV2_2/shape_and_slices"
  attr {
    key: "dtypes"
    value {
      list {
        type: DT_FLOAT
      }
    }
  }
}
node {
  name: "save/Assign_2"
  op: "Assign"
  input: "Adam/beta2_power"
  input: "save/RestoreV2_2"
  attr {
    key: "T"
    value {
      type: DT_FLOAT
    }
  }
  attr {
    key: "_class"
    value {
      list {
        s: "loc:@FullyConnected/W"
      }
    }
  }
  attr {
    key: "use_locking"
    value {
      b: true
    }
  }
  attr {
    key: "validate_shape"
    value {
      b: true
    }
  }
}
node {
  name: "save/RestoreV2_3/tensor_names"
  op: "Const"
  attr {
    key: "dtype"
    value {
      type: DT_STRING
    }
  }
  attr {
    key: "value"
    value {
      tensor {
        dtype: DT_STRING
        tensor_shape {
          dim {
            size: 1
          }
        }
        string_val: "Crossentropy/Mean/moving_avg"
      }
    }
  }
}
node {
  name: "save/RestoreV2_3/shape_and_slices"
  op: "Const"
  attr {
    key: "dtype"
    value {
      type: DT_STRING
    }
  }
  attr {
    key: "value"
    value {
      tensor {
        dtype: DT_STRING
        tensor_shape {
          dim {
            size: 1
          }
        }
        string_val: ""
      }
    }
  }
}
node {
  name: "save/RestoreV2_3"
  op: "RestoreV2"
  input: "save/Const"
  input: "save/RestoreV2_3/tensor_names"
  input: "save/RestoreV2_3/shape_and_slices"
  attr {
    key: "dtypes"
    value {
      list {
        type: DT_FLOAT
      }
    }
  }
}
node {
  name: "save/Assign_3"
  op: "Assign"
  input: "Crossentropy/Mean/moving_avg"
  input: "save/RestoreV2_3"
  attr {
    key: "T"
    value {
      type: DT_FLOAT
    }
  }
  attr {
    key: "_class"
    value {
      list {
        s: "loc:@Crossentropy/Mean/moving_avg"
      }
    }
  }
  attr {
    key: "use_locking"
    value {
      b: true
    }
  }
  attr {
    key: "validate_shape"
    value {
      b: true
    }
  }
}
node {
  name: "save/RestoreV2_4/tensor_names"
  op: "Const"
  attr {
    key: "dtype"
    value {
      type: DT_STRING
    }
  }
  attr {
    key: "value"
    value {
      tensor {
        dtype: DT_STRING
        tensor_shape {
          dim {
            size: 1
          }
        }
        string_val: "FullyConnected/W"
      }
    }
  }
}
node {
  name: "save/RestoreV2_4/shape_and_slices"
  op: "Const"
  attr {
    key: "dtype"
    value {
      type: DT_STRING
    }
  }
  attr {
    key: "value"
    value {
      tensor {
        dtype: DT_STRING
        tensor_shape {
          dim {
            size: 1
          }
        }
        string_val: ""
      }
    }
  }
}
node {
  name: "save/RestoreV2_4"
  op: "RestoreV2"
  input: "save/Const"
  input: "save/RestoreV2_4/tensor_names"
  input: "save/RestoreV2_4/shape_and_slices"
  attr {
    key: "dtypes"
    value {
      list {
        type: DT_FLOAT
      }
    }
  }
}
node {
  name: "save/Assign_4"
  op: "Assign"
  input: "FullyConnected/W"
  input: "save/RestoreV2_4"
  attr {
    key: "T"
    value {
      type: DT_FLOAT
    }
  }
  attr {
    key: "_class"
    value {
      list {
        s: "loc:@FullyConnected/W"
      }
    }
  }
  attr {
    key: "use_locking"
    value {
      b: true
    }
  }
  attr {
    key: "validate_shape"
    value {
      b: true
    }
  }
}
node {
  name: "save/RestoreV2_5/tensor_names"
  op: "Const"
  attr {
    key: "dtype"
    value {
      type: DT_STRING
    }
  }
  attr {
    key: "value"
    value {
      tensor {
        dtype: DT_STRING
        tensor_shape {
          dim {
            size: 1
          }
        }
        string_val: "FullyConnected/W/Adam"
      }
    }
  }
}
node {
  name: "save/RestoreV2_5/shape_and_slices"
  op: "Const"
  attr {
    key: "dtype"
    value {
      type: DT_STRING
    }
  }
  attr {
    key: "value"
    value {
      tensor {
        dtype: DT_STRING
        tensor_shape {
          dim {
            size: 1
          }
        }
        string_val: ""
      }
    }
  }
}
node {
  name: "save/RestoreV2_5"
  op: "RestoreV2"
  input: "save/Const"
  input: "save/RestoreV2_5/tensor_names"
  input: "save/RestoreV2_5/shape_and_slices"
  attr {
    key: "dtypes"
    value {
      list {
        type: DT_FLOAT
      }
    }
  }
}
node {
  name: "save/Assign_5"
  op: "Assign"
  input: "FullyConnected/W/Adam"
  input: "save/RestoreV2_5"
  attr {
    key: "T"
    value {
      type: DT_FLOAT
    }
  }
  attr {
    key: "_class"
    value {
      list {
        s: "loc:@FullyConnected/W"
      }
    }
  }
  attr {
    key: "use_locking"
    value {
      b: true
    }
  }
  attr {
    key: "validate_shape"
    value {
      b: true
    }
  }
}
node {
  name: "save/RestoreV2_6/tensor_names"
  op: "Const"
  attr {
    key: "dtype"
    value {
      type: DT_STRING
    }
  }
  attr {
    key: "value"
    value {
      tensor {
        dtype: DT_STRING
        tensor_shape {
          dim {
            size: 1
          }
        }
        string_val: "FullyConnected/W/Adam_1"
      }
    }
  }
}
node {
  name: "save/RestoreV2_6/shape_and_slices"
  op: "Const"
  attr {
    key: "dtype"
    value {
      type: DT_STRING
    }
  }
  attr {
    key: "value"
    value {
      tensor {
        dtype: DT_STRING
        tensor_shape {
          dim {
            size: 1
          }
        }
        string_val: ""
      }
    }
  }
}
node {
  name: "save/RestoreV2_6"
  op: "RestoreV2"
  input: "save/Const"
  input: "save/RestoreV2_6/tensor_names"
  input: "save/RestoreV2_6/shape_and_slices"
  attr {
    key: "dtypes"
    value {
      list {
        type: DT_FLOAT
      }
    }
  }
}
node {
  name: "save/Assign_6"
  op: "Assign"
  input: "FullyConnected/W/Adam_1"
  input: "save/RestoreV2_6"
  attr {
    key: "T"
    value {
      type: DT_FLOAT
    }
  }
  attr {
    key: "_class"
    value {
      list {
        s: "loc:@FullyConnected/W"
      }
    }
  }
  attr {
    key: "use_locking"
    value {
      b: true
    }
  }
  attr {
    key: "validate_shape"
    value {
      b: true
    }
  }
}
node {
  name: "save/RestoreV2_7/tensor_names"
  op: "Const"
  attr {
    key: "dtype"
    value {
      type: DT_STRING
    }
  }
  attr {
    key: "value"
    value {
      tensor {
        dtype: DT_STRING
        tensor_shape {
          dim {
            size: 1
          }
        }
        string_val: "FullyConnected/b"
      }
    }
  }
}
node {
  name: "save/RestoreV2_7/shape_and_slices"
  op: "Const"
  attr {
    key: "dtype"
    value {
      type: DT_STRING
    }
  }
  attr {
    key: "value"
    value {
      tensor {
        dtype: DT_STRING
        tensor_shape {
          dim {
            size: 1
          }
        }
        string_val: ""
      }
    }
  }
}
node {
  name: "save/RestoreV2_7"
  op: "RestoreV2"
  input: "save/Const"
  input: "save/RestoreV2_7/tensor_names"
  input: "save/RestoreV2_7/shape_and_slices"
  attr {
    key: "dtypes"
    value {
      list {
        type: DT_FLOAT
      }
    }
  }
}
node {
  name: "save/Assign_7"
  op: "Assign"
  input: "FullyConnected/b"
  input: "save/RestoreV2_7"
  attr {
    key: "T"
    value {
      type: DT_FLOAT
    }
  }
  attr {
    key: "_class"
    value {
      list {
        s: "loc:@FullyConnected/b"
      }
    }
  }
  attr {
    key: "use_locking"
    value {
      b: true
    }
  }
  attr {
    key: "validate_shape"
    value {
      b: true
    }
  }
}
node {
  name: "save/RestoreV2_8/tensor_names"
  op: "Const"
  attr {
    key: "dtype"
    value {
      type: DT_STRING
    }
  }
  attr {
    key: "value"
    value {
      tensor {
        dtype: DT_STRING
        tensor_shape {
          dim {
            size: 1
          }
        }
        string_val: "FullyConnected/b/Adam"
      }
    }
  }
}
node {
  name: "save/RestoreV2_8/shape_and_slices"
  op: "Const"
  attr {
    key: "dtype"
    value {
      type: DT_STRING
    }
  }
  attr {
    key: "value"
    value {
      tensor {
        dtype: DT_STRING
        tensor_shape {
          dim {
            size: 1
          }
        }
        string_val: ""
      }
    }
  }
}
node {
  name: "save/RestoreV2_8"
  op: "RestoreV2"
  input: "save/Const"
  input: "save/RestoreV2_8/tensor_names"
  input: "save/RestoreV2_8/shape_and_slices"
  attr {
    key: "dtypes"
    value {
      list {
        type: DT_FLOAT
      }
    }
  }
}
node {
  name: "save/Assign_8"
  op: "Assign"
  input: "FullyConnected/b/Adam"
  input: "save/RestoreV2_8"
  attr {
    key: "T"
    value {
      type: DT_FLOAT
    }
  }
  attr {
    key: "_class"
    value {
      list {
        s: "loc:@FullyConnected/b"
      }
    }
  }
  attr {
    key: "use_locking"
    value {
      b: true
    }
  }
  attr {
    key: "validate_shape"
    value {
      b: true
    }
  }
}
node {
  name: "save/RestoreV2_9/tensor_names"
  op: "Const"
  attr {
    key: "dtype"
    value {
      type: DT_STRING
    }
  }
  attr {
    key: "value"
    value {
      tensor {
        dtype: DT_STRING
        tensor_shape {
          dim {
            size: 1
          }
        }
        string_val: "FullyConnected/b/Adam_1"
      }
    }
  }
}
node {
  name: "save/RestoreV2_9/shape_and_slices"
  op: "Const"
  attr {
    key: "dtype"
    value {
      type: DT_STRING
    }
  }
  attr {
    key: "value"
    value {
      tensor {
        dtype: DT_STRING
        tensor_shape {
          dim {
            size: 1
          }
        }
        string_val: ""
      }
    }
  }
}
node {
  name: "save/RestoreV2_9"
  op: "RestoreV2"
  input: "save/Const"
  input: "save/RestoreV2_9/tensor_names"
  input: "save/RestoreV2_9/shape_and_slices"
  attr {
    key: "dtypes"
    value {
      list {
        type: DT_FLOAT
      }
    }
  }
}
node {
  name: "save/Assign_9"
  op: "Assign"
  input: "FullyConnected/b/Adam_1"
  input: "save/RestoreV2_9"
  attr {
    key: "T"
    value {
      type: DT_FLOAT
    }
  }
  attr {
    key: "_class"
    value {
      list {
        s: "loc:@FullyConnected/b"
      }
    }
  }
  attr {
    key: "use_locking"
    value {
      b: true
    }
  }
  attr {
    key: "validate_shape"
    value {
      b: true
    }
  }
}
node {
  name: "save/RestoreV2_10/tensor_names"
  op: "Const"
  attr {
    key: "dtype"
    value {
      type: DT_STRING
    }
  }
  attr {
    key: "value"
    value {
      tensor {
        dtype: DT_STRING
        tensor_shape {
          dim {
            size: 1
          }
        }
        string_val: "FullyConnected_1/W"
      }
    }
  }
}
node {
  name: "save/RestoreV2_10/shape_and_slices"
  op: "Const"
  attr {
    key: "dtype"
    value {
      type: DT_STRING
    }
  }
  attr {
    key: "value"
    value {
      tensor {
        dtype: DT_STRING
        tensor_shape {
          dim {
            size: 1
          }
        }
        string_val: ""
      }
    }
  }
}
node {
  name: "save/RestoreV2_10"
  op: "RestoreV2"
  input: "save/Const"
  input: "save/RestoreV2_10/tensor_names"
  input: "save/RestoreV2_10/shape_and_slices"
  attr {
    key: "dtypes"
    value {
      list {
        type: DT_FLOAT
      }
    }
  }
}
node {
  name: "save/Assign_10"
  op: "Assign"
  input: "FullyConnected_1/W"
  input: "save/RestoreV2_10"
  attr {
    key: "T"
    value {
      type: DT_FLOAT
    }
  }
  attr {
    key: "_class"
    value {
      list {
        s: "loc:@FullyConnected_1/W"
      }
    }
  }
  attr {
    key: "use_locking"
    value {
      b: true
    }
  }
  attr {
    key: "validate_shape"
    value {
      b: true
    }
  }
}
node {
  name: "save/RestoreV2_11/tensor_names"
  op: "Const"
  attr {
    key: "dtype"
    value {
      type: DT_STRING
    }
  }
  attr {
    key: "value"
    value {
      tensor {
        dtype: DT_STRING
        tensor_shape {
          dim {
            size: 1
          }
        }
        string_val: "FullyConnected_1/W/Adam"
      }
    }
  }
}
node {
  name: "save/RestoreV2_11/shape_and_slices"
  op: "Const"
  attr {
    key: "dtype"
    value {
      type: DT_STRING
    }
  }
  attr {
    key: "value"
    value {
      tensor {
        dtype: DT_STRING
        tensor_shape {
          dim {
            size: 1
          }
        }
        string_val: ""
      }
    }
  }
}
node {
  name: "save/RestoreV2_11"
  op: "RestoreV2"
  input: "save/Const"
  input: "save/RestoreV2_11/tensor_names"
  input: "save/RestoreV2_11/shape_and_slices"
  attr {
    key: "dtypes"
    value {
      list {
        type: DT_FLOAT
      }
    }
  }
}
node {
  name: "save/Assign_11"
  op: "Assign"
  input: "FullyConnected_1/W/Adam"
  input: "save/RestoreV2_11"
  attr {
    key: "T"
    value {
      type: DT_FLOAT
    }
  }
  attr {
    key: "_class"
    value {
      list {
        s: "loc:@FullyConnected_1/W"
      }
    }
  }
  attr {
    key: "use_locking"
    value {
      b: true
    }
  }
  attr {
    key: "validate_shape"
    value {
      b: true
    }
  }
}
node {
  name: "save/RestoreV2_12/tensor_names"
  op: "Const"
  attr {
    key: "dtype"
    value {
      type: DT_STRING
    }
  }
  attr {
    key: "value"
    value {
      tensor {
        dtype: DT_STRING
        tensor_shape {
          dim {
            size: 1
          }
        }
        string_val: "FullyConnected_1/W/Adam_1"
      }
    }
  }
}
node {
  name: "save/RestoreV2_12/shape_and_slices"
  op: "Const"
  attr {
    key: "dtype"
    value {
      type: DT_STRING
    }
  }
  attr {
    key: "value"
    value {
      tensor {
        dtype: DT_STRING
        tensor_shape {
          dim {
            size: 1
          }
        }
        string_val: ""
      }
    }
  }
}
node {
  name: "save/RestoreV2_12"
  op: "RestoreV2"
  input: "save/Const"
  input: "save/RestoreV2_12/tensor_names"
  input: "save/RestoreV2_12/shape_and_slices"
  attr {
    key: "dtypes"
    value {
      list {
        type: DT_FLOAT
      }
    }
  }
}
node {
  name: "save/Assign_12"
  op: "Assign"
  input: "FullyConnected_1/W/Adam_1"
  input: "save/RestoreV2_12"
  attr {
    key: "T"
    value {
      type: DT_FLOAT
    }
  }
  attr {
    key: "_class"
    value {
      list {
        s: "loc:@FullyConnected_1/W"
      }
…
    }
  }
  attr {
    key: "_class"
    value {
      list {
        s: "loc:@FullyConnected/b"
      }
    }
  }
  attr {
    key: "use_locking"
    value {
      b: true
    }
  }
  attr {
    key: "validate_shape"
    value {
      b: true
    }
  }
}
node {
  name: "save_2/RestoreV2_2/tensor_names"
  op: "Const"
  attr {
    key: "dtype"
    value {
      type: DT_STRING
    }
  }
  attr {
    key: "value"
    value {
      tensor {
        dtype: DT_STRING
        tensor_shape {
          dim {
            size: 1
          }
        }
        string_val: "FullyConnected_1/W"
      }
    }
  }
}
node {
  name: "save_2/RestoreV2_2/shape_and_slices"
  op: "Const"
  attr {
    key: "dtype"
    value {
      type: DT_STRING
    }
  }
  attr {
    key: "value"
    value {
      tensor {
        dtype: DT_STRING
        tensor_shape {
          dim {
            size: 1
          }
        }
        string_val: ""
      }
    }
  }
}
node {
  name: "save_2/RestoreV2_2"
  op: "RestoreV2"
  input: "save_2/Const"
  input: "save_2/RestoreV2_2/tensor_names"
  input: "save_2/RestoreV2_2/shape_and_slices"
  attr {
    key: "dtypes"
    value {
      list {
        type: DT_FLOAT
      }
    }
  }
}
node {
  name: "save_2/Assign_2"
  op: "Assign"
  input: "FullyConnected_1/W"
  input: "save_2/RestoreV2_2"
  attr {
    key: "T"
    value {
      type: DT_FLOAT
    }
  }
  attr {
    key: "_class"
    value {
      list {
        s: "loc:@FullyConnected_1/W"
      }
    }
  }
  attr {
    key: "use_locking"
    value {
      b: true
    }
  }
  attr {
    key: "validate_shape"
    value {
      b: true
    }
  }
}
node {
  name: "save_2/RestoreV2_3/tensor_names"
  op: "Const"
  attr {
    key: "dtype"
    value {
      type: DT_STRING
    }
  }
  attr {
    key: "value"
    value {
      tensor {
        dtype: DT_STRING
        tensor_shape {
          dim {
            size: 1
          }
        }
        string_val: "FullyConnected_1/b"
      }
    }
  }
}
node {
  name: "save_2/RestoreV2_3/shape_and_slices"
  op: "Const"
  attr {
    key: "dtype"
    value {
      type: DT_STRING
    }
  }
  attr {
    key: "value"
    value {
      tensor {
        dtype: DT_STRING
        tensor_shape {
          dim {
            size: 1
          }
        }
        string_val: ""
      }
    }
  }
}
node {
  name: "save_2/RestoreV2_3"
  op: "RestoreV2"
  input: "save_2/Const"
  input: "save_2/RestoreV2_3/tensor_names"
  input: "save_2/RestoreV2_3/shape_and_slices"
  attr {
    key: "dtypes"
    value {
      list {
        type: DT_FLOAT
      }
    }
  }
}
node {
  name: "save_2/Assign_3"
  op: "Assign"
  input: "FullyConnected_1/b"
  input: "save_2/RestoreV2_3"
  attr {
    key: "T"
    value {
      type: DT_FLOAT
    }
  }
  attr {
    key: "_class"
    value {
      list {
        s: "loc:@FullyConnected_1/b"
      }
    }
  }
  attr {
    key: "use_locking"
    value {
      b: true
    }
  }
  attr {
    key: "validate_shape"
    value {
      b: true
    }
  }
}
node {
  name: "save_2/RestoreV2_4/tensor_names"
  op: "Const"
  attr {
    key: "dtype"
    value {
      type: DT_STRING
    }
  }
  attr {
    key: "value"
    value {
      tensor {
        dtype: DT_STRING
        tensor_shape {
          dim {
            size: 1
          }
        }
        string_val: "FullyConnected_2/W"
      }
    }
  }
}
node {
  name: "save_2/RestoreV2_4/shape_and_slices"
  op: "Const"
  attr {
    key: "dtype"
    value {
      type: DT_STRING
    }
  }
  attr {
    key: "value"
    value {
      tensor {
        dtype: DT_STRING
        tensor_shape {
          dim {
            size: 1
          }
        }
        string_val: ""
      }
    }
  }
}
node {
  name: "save_2/RestoreV2_4"
  op: "RestoreV2"
  input: "save_2/Const"
  input: "save_2/RestoreV2_4/tensor_names"
  input: "save_2/RestoreV2_4/shape_and_slices"
  attr {
    key: "dtypes"
    value {
      list {
        type: DT_FLOAT
      }
    }
  }
}
node {
  name: "save_2/Assign_4"
  op: "Assign"
  input: "FullyConnected_2/W"
  input: "save_2/RestoreV2_4"
  attr {
    key: "T"
    value {
      type: DT_FLOAT
    }
  }
  attr {
    key: "_class"
    value {
      list {
        s: "loc:@FullyConnected_2/W"
      }
    }
  }
  attr {
    key: "use_locking"
    value {
      b: true
    }
  }
  attr {
    key: "validate_shape"
    value {
      b: true
    }
  }
}
node {
  name: "save_2/RestoreV2_5/tensor_names"
  op: "Const"
  attr {
    key: "dtype"
    value {
      type: DT_STRING
    }
  }
  attr {
    key: "value"
    value {
      tensor {
        dtype: DT_STRING
        tensor_shape {
          dim {
            size: 1
          }
        }
        string_val: "FullyConnected_2/b"
      }
    }
  }
}
node {
  name: "save_2/RestoreV2_5/shape_and_slices"
  op: "Const"
  attr {
    key: "dtype"
    value {
      type: DT_STRING
    }
  }
  attr {
    key: "value"
    value {
      tensor {
        dtype: DT_STRING
        tensor_shape {
          dim {
            size: 1
          }
        }
        string_val: ""
      }
    }
  }
}
node {
  name: "save_2/RestoreV2_5"
  op: "RestoreV2"
  input: "save_2/Const"
  input: "save_2/RestoreV2_5/tensor_names"
  input: "save_2/RestoreV2_5/shape_and_slices"
  attr {
    key: "dtypes"
    value {
      list {
        type: DT_FLOAT
      }
    }
  }
}
node {
  name: "save_2/Assign_5"
  op: "Assign"
  input: "FullyConnected_2/b"
  input: "save_2/RestoreV2_5"
  attr {
    key: "T"
    value {
      type: DT_FLOAT
    }
  }
  attr {
    key: "_class"
    value {
      list {
        s: "loc:@FullyConnected_2/b"
      }
    }
  }
  attr {
    key: "use_locking"
    value {
      b: true
    }
  }
  attr {
    key: "validate_shape"
    value {
      b: true
    }
  }
}
node {
  name: "save_2/restore_all"
  op: "NoOp"
  input: "^save_2/Assign"
  input: "^save_2/Assign_1"
  input: "^save_2/Assign_2"
  input: "^save_2/Assign_3"
  input: "^save_2/Assign_4"
  input: "^save_2/Assign_5"
}
node {
  name: "init"
  op: "NoOp"
  input: "^FullyConnected/W/Assign"
  input: "^FullyConnected/b/Assign"
  input: "^FullyConnected_1/W/Assign"
  input: "^FullyConnected_1/b/Assign"
  input: "^FullyConnected_2/W/Assign"
  input: "^FullyConnected_2/b/Assign"
  input: "^Training_step/Assign"
  input: "^is_training/Assign"
  input: "^Global_Step/Assign"
  input: "^val_loss/Assign"
  input: "^val_acc/Assign"
  input: "^Accuracy/Mean/moving_avg/Assign"
  input: "^Crossentropy/Mean/moving_avg/Assign"
  input: "^Adam/beta1_power/Assign"
  input: "^Adam/beta2_power/Assign"
  input: "^FullyConnected/W/Adam/Assign"
  input: "^FullyConnected/W/Adam_1/Assign"
  input: "^FullyConnected/b/Adam/Assign"
  input: "^FullyConnected/b/Adam_1/Assign"
  input: "^FullyConnected_1/W/Adam/Assign"
  input: "^FullyConnected_1/W/Adam_1/Assign"
  input: "^FullyConnected_1/b/Adam/Assign"
  input: "^FullyConnected_1/b/Adam_1/Assign"
  input: "^FullyConnected_2/W/Adam/Assign"
  input: "^FullyConnected_2/W/Adam_1/Assign"
  input: "^FullyConnected_2/b/Adam/Assign"
  input: "^FullyConnected_2/b/Adam_1/Assign"
}
node {
  name: "init_1"
  op: "NoOp"
}
node {
  name: "group_deps"
  op: "NoOp"
  input: "^init"
  input: "^init_1"
}
node {
  name: "init_2"
  op: "NoOp"
  input: "^is_training/Assign"
}
node {
  name: "save_3/Const"
  op: "Const"
  attr {
    key: "dtype"
    value {
      type: DT_STRING
    }
  }
  attr {
    key: "value"
    value {
      tensor {
        dtype: DT_STRING
        tensor_shape {
        }
        string_val: "model"
      }
    }
  }
}
node {
  name: "save_3/SaveV2/tensor_names"
  op: "Const"
  attr {
    key: "dtype"
    value {
      type: DT_STRING
    }
  }
  attr {
    key: "value"
    value {
      tensor {
        dtype: DT_STRING
        tensor_shape {
          dim {
            size: 27
          }
        }
        string_val: "Accuracy/Mean/moving_avg"
        string_val: "Adam/beta1_power"
        string_val: "Adam/beta2_power"
        string_val: "Crossentropy/Mean/moving_avg"
        string_val: "FullyConnected/W"
        string_val: "FullyConnected/W/Adam"
        string_val: "FullyConnected/W/Adam_1"
        string_val: "FullyConnected/b"
        string_val: "FullyConnected/b/Adam"
        string_val: "FullyConnected/b/Adam_1"
        string_val: "FullyConnected_1/W"
        string_val: "FullyConnected_1/W/Adam"
        string_val: "FullyConnected_1/W/Adam_1"
        string_val: "FullyConnected_1/b"
        string_val: "FullyConnected_1/b/Adam"
        string_val: "FullyConnected_1/b/Adam_1"
        string_val: "FullyConnected_2/W"
        string_val: "FullyConnected_2/W/Adam"
        string_val: "FullyConnected_2/W/Adam_1"
        string_val: "FullyConnected_2/b"
        string_val: "FullyConnected_2/b/Adam"
        string_val: "FullyConnected_2/b/Adam_1"
        string_val: "Global_Step"
        string_val: "Training_step"
        string_val: "is_training"
        string_val: "val_acc"
        string_val: "val_loss"
      }
    }
  }
}
node {
  name: "save_3/SaveV2/shape_and_slices"
  op: "Const"
  attr {
    key: "dtype"
    value {
      type: DT_STRING
    }
  }
  attr {
    key: "value"
    value {
      tensor {
        dtype: DT_STRING
        tensor_shape {
          dim {
            size: 27
          }
        }
        string_val: ""
        string_val: ""
        string_val: ""
        string_val: ""
        string_val: ""
        string_val: ""
        string_val: ""
        string_val: ""
        string_val: ""
        string_val: ""
        string_val: ""
        string_val: ""
        string_val: ""
        string_val: ""
        string_val: ""
        string_val: ""
        string_val: ""
        string_val: ""
        string_val: ""
        string_val: ""
        string_val: ""
        string_val: ""
        string_val: ""
        string_val: ""
        string_val: ""
        string_val: ""
        string_val: ""
      }
    }
  }
}
node {
  name: "save_3/SaveV2"
  op: "SaveV2"
  input: "save_3/Const"
  input: "save_3/SaveV2/tensor_names"
  input: "save_3/SaveV2/shape_and_slices"
  input: "Accuracy/Mean/moving_avg"
  input: "Adam/beta1_power"
  input: "Adam/beta2_power"
  input: "Crossentropy/Mean/moving_avg"
  input: "FullyConnected/W"
  input: "FullyConnected/W/Adam"
  input: "FullyConnected/W/Adam_1"
  input: "FullyConnected/b"
  input: "FullyConnected/b/Adam"
  input: "FullyConnected/b/Adam_1"
  input: "FullyConnected_1/W"
  input: "FullyConnected_1/W/Adam"
  input: "FullyConnected_1/W/Adam_1"
  input: "FullyConnected_1/b"
  input: "FullyConnected_1/b/Adam"
  input: "FullyConnected_1/b/Adam_1"
  input: "FullyConnected_2/W"
  input: "FullyConnected_2/W/Adam"
  input: "FullyConnected_2/W/Adam_1"
  input: "FullyConnected_2/b"
  input: "FullyConnected_2/b/Adam"
  input: "FullyConnected_2/b/Adam_1"
  input: "Global_Step"
  input: "Training_step"
  input: "is_training"
  input: "val_acc"
  input: "val_loss"
  attr {
    key: "dtypes"
    value {
      list {
        type: DT_FLOAT
        type: DT_FLOAT
        type: DT_FLOAT
        type: DT_FLOAT
        type: DT_FLOAT
        type: DT_FLOAT
        type: DT_FLOAT
        type: DT_FLOAT
        type: DT_FLOAT
        type: DT_FLOAT
        type: DT_FLOAT
        type: DT_FLOAT
        type: DT_FLOAT
        type: DT_FLOAT
        type: DT_FLOAT
        type: DT_FLOAT
        type: DT_FLOAT
        type: DT_FLOAT
        type: DT_FLOAT
        type: DT_FLOAT
        type: DT_FLOAT
        type: DT_FLOAT
        type: DT_FLOAT
        type: DT_FLOAT
        type: DT_BOOL
        type: DT_FLOAT
        type: DT_FLOAT
      }
    }
  }
}
node {
  name: "save_3/control_dependency"
  op: "Identity"
  input: "save_3/Const"
  input: "^save_3/SaveV2"
  attr {
    key: "T"
    value {
      type: DT_STRING
    }
  }
  attr {
    key: "_class"
    value {
      list {
        s: "loc:@save_3/Const"
      }
    }
  }
}
node {
  name: "save_3/RestoreV2/tensor_names"
  op: "Const"
  attr {
    key: "dtype"
    value {
      type: DT_STRING
    }
  }
  attr {
    key: "value"
    value {
      tensor {
        dtype: DT_STRING
        tensor_shape {
          dim {
            size: 1
          }
        }
        string_val: "Accuracy/Mean/moving_avg"
      }
    }
  }
}
node {
  name: "save_3/RestoreV2/shape_and_slices"
  op: "Const"
  attr {
    key: "dtype"
    value {
      type: DT_STRING
    }
  }
  attr {
    key: "value"
    value {
      tensor {
        dtype: DT_STRING
        tensor_shape {
          dim {
            size: 1
          }
        }
        string_val: ""
      }
    }
  }
}
node {
  name: "save_3/RestoreV2"
  op: "RestoreV2"
  input: "save_3/Const"
  input: "save_3/RestoreV2/tensor_names"
  input: "save_3/RestoreV2/shape_and_slices"
  attr {
    key: "dtypes"
    value {
      list {
        type: DT_FLOAT
      }
    }
  }
}
node {
  name: "save_3/Assign"
  op: "Assign"
  input: "Accuracy/Mean/moving_avg"
  input: "save_3/RestoreV2"
  attr {
    key: "T"
    value {
      type: DT_FLOAT
    }
  }
  attr {
    key: "_class"
    value {
      list {
        s: "loc:@Accuracy/Mean/moving_avg"
      }
    }
  }
  attr {
    key: "use_locking"
    value {
      b: true
    }
  }
  attr {
    key: "validate_shape"
    value {
      b: true
    }
  }
}
node {
  name: "save_3/RestoreV2_1/tensor_names"
  op: "Const"
  attr {
    key: "dtype"
    value {
      type: DT_STRING
    }
  }
  attr {
    key: "value"
    value {
      tensor {
        dtype: DT_STRING
        tensor_shape {
          dim {
            size: 1
          }
        }
        string_val: "Adam/beta1_power"
      }
    }
  }
}
node {
  name: "save_3/RestoreV2_1/shape_and_slices"
  op: "Const"
  attr {
    key: "dtype"
    value {
      type: DT_STRING
    }
  }
  attr {
    key: "value"
    value {
      tensor {
        dtype: DT_STRING
        tensor_shape {
          dim {
            size: 1
          }
        }
        string_val: ""
      }
    }
  }
}
node {
  name: "save_3/RestoreV2_1"
  op: "RestoreV2"
  input: "save_3/Const"
  input: "save_3/RestoreV2_1/tensor_names"
  input: "save_3/RestoreV2_1/shape_and_slices"
  attr {
    key: "dtypes"
    value {
      list {
        type: DT_FLOAT
      }
    }
  }
}
node {
  name: "save_3/Assign_1"
  op: "Assign"
  input: "Adam/beta1_power"
  input: "save_3/RestoreV2_1"
  attr {
    key: "T"
    value {
      type: DT_FLOAT
    }
  }
  attr {
    key: "_class"
    value {
      list {
        s: "loc:@FullyConnected/W"
      }
    }
  }
  attr {
    key: "use_locking"
    value {
      b: true
    }
  }
  attr {
    key: "validate_shape"
    value {
      b: true
    }
  }
}
node {
  name: "save_3/RestoreV2_2/tensor_names"
  op: "Const"
  attr {
    key: "dtype"
    value {
      type: DT_STRING
    }
  }
  attr {
    key: "value"
    value {
      tensor {
        dtype: DT_STRING
        tensor_shape {
          dim {
            size: 1
          }
        }
        string_val: "Adam/beta2_power"
      }
    }
  }
}
node {
  name: "save_3/RestoreV2_2/shape_and_slices"
  op: "Const"
  attr {
    key: "dtype"
    value {
      type: DT_STRING
    }
  }
  attr {
    key: "value"
    value {
      tensor {
        dtype: DT_STRING
        tensor_shape {
          dim {
            size: 1
          }
        }
        string_val: ""
      }
    }
  }
}
node {
  name: "save_3/RestoreV2_2"
  op: "RestoreV2"
  input: "save_3/Const"
  input: "save_3/RestoreV2_2/tensor_names"
  input: "save_3/RestoreV2_2/shape_and_slices"
  attr {
    key: "dtypes"
    value {
      list {
        type: DT_FLOAT
      }
    }
  }
}
node {
  name: "save_3/Assign_2"
  op: "Assign"
  input: "Adam/beta2_power"
  input: "save_3/RestoreV2_2"
  attr {
    key: "T"
    value {
      type: DT_FLOAT
    }
  }
  attr {
    key: "_class"
    value {
      list {
        s: "loc:@FullyConnected/W"
      }
    }
  }
  attr {
    key: "use_locking"
    value {
      b: true
    }
  }
  attr {
    key: "validate_shape"
    value {
      b: true
    }
  }
}
node {
  name: "save_3/RestoreV2_3/tensor_names"
  op: "Const"
  attr {
    key: "dtype"
    value {
      type: DT_STRING
    }
  }
  attr {
    key: "value"
    value {
      tensor {
        dtype: DT_STRING
        tensor_shape {
          dim {
            size: 1
          }
        }
        string_val: "Crossentropy/Mean/moving_avg"
      }
    }
  }
}
node {
  name: "save_3/RestoreV2_3/shape_and_slices"
  op: "Const"
  attr {
    key: "dtype"
    value {
      type: DT_STRING
    }
  }
  attr {
    key: "value"
    value {
      tensor {
        dtype: DT_STRING
        tensor_shape {
          dim {
            size: 1
          }
        }
        string_val: ""
      }
    }
  }
}
node {
  name: "save_3/RestoreV2_3"
  op: "RestoreV2"
  input: "save_3/Const"
  input: "save_3/RestoreV2_3/tensor_names"
  input: "save_3/RestoreV2_3/shape_and_slices"
  attr {
    key: "dtypes"
    value {
      list {
        type: DT_FLOAT
      }
    }
  }
}
node {
  name: "save_3/Assign_3"
  op: "Assign"
  input: "Crossentropy/Mean/moving_avg"
  input: "save_3/RestoreV2_3"
  attr {
    key: "T"
    value {
      type: DT_FLOAT
    }
  }
  attr {
    key: "_class"
    value {
      list {
        s: "loc:@Crossentropy/Mean/moving_avg"
      }
    }
  }
  attr {
    key: "use_locking"
    value {
      b: true
    }
  }
  attr {
    key: "validate_shape"
    value {
      b: true
    }
  }
}
node {
  name: "save_3/RestoreV2_4/tensor_names"
  op: "Const"
  attr {
    key: "dtype"
    value {
      type: DT_STRING
    }
  }
  attr {
    key: "value"
    value {
      tensor {
        dtype: DT_STRING
        tensor_shape {
          dim {
            size: 1
          }
        }
        string_val: "FullyConnected/W"
      }
    }
  }
}
node {
  name: "save_3/RestoreV2_4/shape_and_slices"
  op: "Const"
  attr {
    key: "dtype"
    value {
      type: DT_STRING
    }
  }
  attr {
    key: "value"
    value {
      tensor {
        dtype: DT_STRING
        tensor_shape {
          dim {
            size: 1
          }
        }
        string_val: ""
      }
    }
  }
}
node {
  name: "save_3/RestoreV2_4"
  op: "RestoreV2"
  input: "save_3/Const"
  input: "save_3/RestoreV2_4/tensor_names"
  input: "save_3/RestoreV2_4/shape_and_slices"
  attr {
    key: "dtypes"
    value {
      list {
        type: DT_FLOAT
      }
    }
  }
}
node {
  name: "save_3/Assign_4"
  op: "Assign"
  input: "FullyConnected/W"
  input: "save_3/RestoreV2_4"
  attr {
    key: "T"
    value {
      type: DT_FLOAT
    }
  }
  attr {
    key: "_class"
    value {
      list {
        s: "loc:@FullyConnected/W"
      }
    }
  }
  attr {
    key: "use_locking"
    value {
      b: true
    }
  }
  attr {
    key: "validate_shape"
    value {
      b: true
    }
  }
}
node {
  name: "save_3/RestoreV2_5/tensor_names"
  op: "Const"
  attr {
    key: "dtype"
    value {
      type: DT_STRING
    }
  }
  attr {
    key: "value"
    value {
      tensor {
        dtype: DT_STRING
        tensor_shape {
          dim {
            size: 1
          }
        }
        string_val: "FullyConnected/W/Adam"
      }
    }
  }
}
node {
  name: "save_3/RestoreV2_5/shape_and_slices"
  op: "Const"
  attr {
    key: "dtype"
    value {
      type: DT_STRING
    }
  }
  attr {
    key: "value"
    value {
      tensor {
        dtype: DT_STRING
        tensor_shape {
          dim {
            size: 1
          }
        }
        string_val: ""
      }
    }
  }
}
node {
  name: "save_3/RestoreV2_5"
  op: "RestoreV2"
  input: "save_3/Const"
  input: "save_3/RestoreV2_5/tensor_names"
  input: "save_3/RestoreV2_5/shape_and_slices"
  attr {
    key: "dtypes"
    value {
      list {
        type: DT_FLOAT
      }
    }
  }
}
node {
  name: "save_3/Assign_5"
  op: "Assign"
  input: "FullyConnected/W/Adam"
  input: "save_3/RestoreV2_5"
  attr {
    key: "T"
    value {
      type: DT_FLOAT
    }
  }
  attr {
    key: "_class"
    value {
      list {
        s: "loc:@FullyConnected/W"
      }
    }
  }
  attr {
    key: "use_locking"
    value {
      b: true
    }
  }
  attr {
    key: "validate_shape"
    value {
      b: true
    }
  }
}
node {
  name: "save_3/RestoreV2_6/tensor_names"
  op: "Const"
  attr {
    key: "dtype"
    value {
      type: DT_STRING
    }
  }
  attr {
    key: "value"
    value {
      tensor {
        dtype: DT_STRING
        tensor_shape {
          dim {
            size: 1
          }
        }
        string_val: "FullyConnected/W/Adam_1"
      }
    }
  }
}
node {
  name: "save_3/RestoreV2_6/shape_and_slices"
  op: "Const"
  attr {
    key: "dtype"
    value {
      type: DT_STRING
    }
  }
  attr {
    key: "value"
    value {
      tensor {
        dtype: DT_STRING
        tensor_shape {
          dim {
            size: 1
          }
        }
        string_val: ""
      }
    }
  }
}
node {
  name: "save_3/RestoreV2_6"
  op: "RestoreV2"
  input: "save_3/Const"
  input: "save_3/RestoreV2_6/tensor_names"
  input: "save_3/RestoreV2_6/shape_and_slices"
  attr {
    key: "dtypes"
    value {
      list {
        type: DT_FLOAT
      }
    }
  }
}
node {
  name: "save_3/Assign_6"
  op: "Assign"
  input: "FullyConnected/W/Adam_1"
  input: "save_3/RestoreV2_6"
  attr {
    key: "T"
    value {
      type: DT_FLOAT
    }
  }
  attr {
    key: "_class"
    value {
      list {
        s: "loc:@FullyConnected/W"
      }
    }
  }
  attr {
    key: "use_locking"
    value {
      b: true
    }
  }
  attr {
    key: "validate_shape"
    value {
      b: true
    }
  }
}
node {
  name: "save_3/RestoreV2_7/tensor_names"
  op: "Const"
  attr {
    key: "dtype"
    value {
      type: DT_STRING
    }
  }
  attr {
    key: "value"
    value {
      tensor {
        dtype: DT_STRING
        tensor_shape {
          dim {
            size: 1
          }
        }
        string_val: "FullyConnected/b"
      }
    }
  }
}
node {
  name: "save_3/RestoreV2_7/shape_and_slices"
  op: "Const"
  attr {
    key: "dtype"
    value {
      type: DT_STRING
    }
  }
  attr {
    key: "value"
    value {
      tensor {
        dtype: DT_STRING
        tensor_shape {
          dim {
            size: 1
          }
        }
        string_val: ""
      }
    }
  }
}
node {
  name: "save_3/RestoreV2_7"
  op: "RestoreV2"
  input: "save_3/Const"
  input: "save_3/RestoreV2_7/tensor_names"
  input: "save_3/RestoreV2_7/shape_and_slices"
  attr {
    key: "dtypes"
    value {
      list {
        type: DT_FLOAT
      }
    }
  }
}
node {
  name: "save_3/Assign_7"
  op: "Assign"
  input: "FullyConnected/b"
  input: "save_3/RestoreV2_7"
  attr {
    key: "T"
    value {
      type: DT_FLOAT
    }
  }
  attr {
    key: "_class"
    value {
      list {
        s: "loc:@FullyConnected/b"
      }
    }
  }
  attr {
    key: "use_locking"
    value {
      b: true
    }
  }
  attr {
    key: "validate_shape"
    value {
      b: true
    }
  }
}
node {
  name: "save_3/RestoreV2_8/tensor_names"
  op: "Const"
  attr {
    key: "dtype"
    value {
      type: DT_STRING
    }
  }
  attr {
    key: "value"
    value {
      tensor {
        dtype: DT_STRING
        tensor_shape {
          dim {
            size: 1
          }
        }
        string_val: "FullyConnected/b/Adam"
      }
    }
  }
}
node {
  name: "save_3/RestoreV2_8/shape_and_slices"
  op: "Const"
  attr {
    key: "dtype"
    value {
      type: DT_STRING
    }
  }
  attr {
    key: "value"
    value {
      tensor {
        dtype: DT_STRING
        tensor_shape {
          dim {
            size: 1
          }
        }
        string_val: ""
      }
    }
  }
}
node {
  name: "save_3/RestoreV2_8"
  op: "RestoreV2"
  input: "save_3/Const"
  input: "save_3/RestoreV2_8/tensor_names"
  input: "save_3/RestoreV2_8/shape_and_slices"
  attr {
    key: "dtypes"
    value {
      list {
        type: DT_FLOAT
      }
    }
  }
}
node {
  name: "save_3/Assign_8"
  op: "Assign"
  input: "FullyConnected/b/Adam"
  input: "save_3/RestoreV2_8"
  attr {
    key: "T"
    value {
      type: DT_FLOAT
    }
  }
  attr {
    key: "_class"
    value {
      list {
        s: "loc:@FullyConnected/b"
      }
    }
  }
  attr {
    key: "use_locking"
    value {
      b: true
    }
  }
  attr {
    key: "validate_shape"
    value {
      b: true
    }
  }
}
node {
  name: "save_3/RestoreV2_9/tensor_names"
  op: "Const"
  attr {
    key: "dtype"
    value {
      type: DT_STRING
    }
  }
  attr {
    key: "value"
    value {
      tensor {
        dtype: DT_STRING
        tensor_shape {
          dim {
            size: 1
          }
        }
        string_val: "FullyConnected/b/Adam_1"
      }
    }
  }
}
node {
  name: "save_3/RestoreV2_9/shape_and_slices"
  op: "Const"
  attr {
    key: "dtype"
    value {
      type: DT_STRING
    }
  }
  attr {
    key: "value"
    value {
      tensor {
        dtype: DT_STRING
        tensor_shape {
          dim {
            size: 1
          }
        }
        string_val: ""
      }
    }
  }
}
node {
  name: "save_3/RestoreV2_9"
  op: "RestoreV2"
  input: "save_3/Const"
  input: "save_3/RestoreV2_9/tensor_names"
  input: "save_3/RestoreV2_9/shape_and_slices"
  attr {
    key: "dtypes"
    value {
      list {
        type: DT_FLOAT
      }
    }
  }
}
node {
  name: "save_3/Assign_9"
  op: "Assign"
  input: "FullyConnected/b/Adam_1"
  input: "save_3/RestoreV2_9"
  attr {
    key: "T"
    value {
      type: DT_FLOAT
    }
  }
  attr {
    key: "_class"
    value {
      list {
        s: "loc:@FullyConnected/b"
      }
    }
  }
  attr {
    key: "use_locking"
    value {
      b: true
    }
  }
  attr {
    key: "validate_shape"
    value {
      b: true
    }
  }
}
node {
  name: "save_3/RestoreV2_10/tensor_names"
  op: "Const"
  attr {
    key: "dtype"
    value {
      type: DT_STRING
    }
  }
  attr {
    key: "value"
    value {
      tensor {
        dtype: DT_STRING
        tensor_shape {
          dim {
            size: 1
          }
        }
        string_val: "FullyConnected_1/W"
      }
    }
  }
}
node {
  name: "save_3/RestoreV2_10/shape_and_slices"
  op: "Const"
  attr {
    key: "dtype"
    value {
      type: DT_STRING
    }
  }
  attr {
    key: "value"
    value {
      tensor {
        dtype: DT_STRING
        tensor_shape {
          dim {
            size: 1
          }
        }
        string_val: ""
      }
    }
  }
}
node {
  name: "save_3/RestoreV2_10"
  op: "RestoreV2"
  input: "save_3/Const"
  input: "save_3/RestoreV2_10/tensor_names"
  input: "save_3/RestoreV2_10/shape_and_slices"
  attr {
    key: "dtypes"
    value {
      list {
        type: DT_FLOAT
      }
    }
  }
}
node {
  name: "save_3/Assign_10"
  op: "Assign"
  input: "FullyConnected_1/W"
  input: "save_3/RestoreV2_10"
  attr {
    key: "T"
    value {
      type: DT_FLOAT
    }
  }
  attr {
    key: "_class"
    value {
      list {
        s: "loc:@FullyConnected_1/W"
      }
    }
  }
  attr {
    key: "use_locking"
    value {
      b: true
    }
  }
  attr {
    key: "validate_shape"
    value {
      b: true
    }
  }
}
node {
  name: "save_3/RestoreV2_11/tensor_names"
  op: "Const"
  attr {
    key: "dtype"
    value {
      type: DT_STRING
    }
  }
  attr {
    key: "value"
    value {
      tensor {
        dtype: DT_STRING
        tensor_shape {
          dim {
            size: 1
          }
        }
        string_val: "FullyConnected_1/W/Adam"
      }
    }
  }
}
node {
  name: "save_3/RestoreV2_11/shape_and_slices"
  op: "Const"
  attr {
    key: "dtype"
    value {
      type: DT_STRING
    }
  }
  attr {
    key: "value"
    value {
      tensor {
        dtype: DT_STRING
        tensor_shape {
          dim {
            size: 1
          }
        }
        string_val: ""
      }
    }
  }
}
node {
  name: "save_3/RestoreV2_11"
  op: "RestoreV2"
  input: "save_3/Const"
  input: "save_3/RestoreV2_11/tensor_names"
  input: "save_3/RestoreV2_11/shape_and_slices"
  attr {
    key: "dtypes"
    value {
      list {
        type: DT_FLOAT
      }
    }
  }
}
node {
  name: "save_3/Assign_11"
  op: "Assign"
  input: "FullyConnected_1/W/Adam"
  input: "save_3/RestoreV2_11"
  attr {
    key: "T"
    value {
      type: DT_FLOAT
    }
  }
  attr {
    key: "_class"
    value {
      list {
        s: "loc:@FullyConnected_1/W"
      }
    }
  }
  attr {
    key: "use_locking"
    value {
      b: true
    }
  }
  attr {
    key: "validate_shape"
    value {
      b: true
    }
  }
}
node {
  name: "save_3/RestoreV2_12/tensor_names"
  op: "Const"
  attr {
    key: "dtype"
    value {
      type: DT_STRING
    }
  }
  attr {
    key: "value"
    value {
      tensor {
        dtype: DT_STRING
        tensor_shape {
          dim {
            size: 1
          }
        }
        string_val: "FullyConnected_1/W/Adam_1"
      }
    }
  }
}
node {
  name: "save_3/RestoreV2_12/shape_and_slices"
  op: "Const"
  attr {
    key: "dtype"
    value {
      type: DT_STRING
    }
  }
  attr {
    key: "value"
    value {
      tensor {
        dtype: DT_STRING
        tensor_shape {
          dim {
            size: 1
          }
        }
        string_val: ""
      }
    }
  }
}
node {
  name: "save_3/RestoreV2_12"
  op: "RestoreV2"
  input: "save_3/Const"
  input: "save_3/RestoreV2_12/tensor_names"
  input: "save_3/RestoreV2_12/shape_and_slices"
  attr {
    key: "dtypes"
    value {
      list {
        type: DT_FLOAT
      }
    }
  }
}
node {
  name: "save_3/Assign_12"
  op: "Assign"
  input: "FullyConnected_1/W/Adam_1"
  input: "save_3/RestoreV2_12"
  attr {
    key: "T"
    value {
      type: DT_FLOAT
    }
  }
  attr {
    key: "_class"
    value {
      list {
        s: "loc:@FullyConnected_1/W"
      }
    }
  }
  attr {
    key: "use_locking"
    value {
      b: true
    }
  }
  attr {
    key: "validate_shape"
    value {
      b: true
    }
  }
}
node {
  name: "save_3/RestoreV2_13/tensor_names"
  op: "Const"
  attr {
    key: "dtype"
    value {
      type: DT_STRING
    }
  }
  attr {
    key: "value"
    value {
      tensor {
        dtype: DT_STRING
        tensor_shape {
          dim {
            size: 1
          }
        }
        string_val: "FullyConnected_1/b"
      }
    }
  }
}
node {
  name: "save_3/RestoreV2_13/shape_and_slices"
  op: "Const"
  attr {
    key: "dtype"
    value {
      type: DT_STRING
    }
  }
  attr {
    key: "value"
    value {
      tensor {
        dtype: DT_STRING
        tensor_shape {
          dim {
            size: 1
          }
        }
        string_val: ""
      }
    }
  }
}
node {
  name: "save_3/RestoreV2_13"
  op: "RestoreV2"
  input: "save_3/Const"
  input: "save_3/RestoreV2_13/tensor_names"
  input: "save_3/RestoreV2_13/shape_and_slices"
  attr {
    key: "dtypes"
    value {
      list {
        type: DT_FLOAT
      }
    }
  }
}
node {
  name: "save_3/Assign_13"
  op: "Assign"
  input: "FullyConnected_1/b"
  input: "save_3/RestoreV2_13"
  attr {
    key: "T"
    value {
      type: DT_FLOAT
    }
  }
  attr {
    key: "_class"
    value {
      list {
        s: "loc:@FullyConnected_1/b"
      }
    }
  }
  attr {
    key: "use_locking"
    value {
      b: true
    }
  }
  attr {
    key: "validate_shape"
    value {
      b: true
    }
  }
}
node {
  name: "save_3/RestoreV2_14/tensor_names"
  op: "Const"
  attr {
    key: "dtype"
    value {
      type: DT_STRING
    }
  }
  attr {
    key: "value"
    value {
      tensor {
        dtype: DT_STRING
        tensor_shape {
          dim {
            size: 1
          }
        }
        string_val: "FullyConnected_1/b/Adam"
      }
    }
  }
}
node {
  name: "save_3/RestoreV2_14/shape_and_slices"
  op: "Const"
  attr {
    key: "dtype"
    value {
      type: DT_STRING
    }
  }
  attr {
    key: "value"
    value {
      tensor {
        dtype: DT_STRING
        tensor_shape {
          dim {
            size: 1
          }
        }
        string_val: ""
      }
    }
  }
}
node {
  name: "save_3/RestoreV2_14"
  op: "RestoreV2"
  input: "save_3/Const"
  input: "save_3/RestoreV2_14/tensor_names"
  input: "save_3/RestoreV2_14/shape_and_slices"
  attr {
    key: "dtypes"
    value {
      list {
        type: DT_FLOAT
      }
    }
  }
}
node {
  name: "save_3/Assign_14"
  op: "Assign"
  input: "FullyConnected_1/b/Adam"
  input: "save_3/RestoreV2_14"
  attr {
    key: "T"
    value {
      type: DT_FLOAT
    }
  }
  attr {
    key: "_class"
    value {
      list {
        s: "loc:@FullyConnected_1/b"
      }
    }
  }
  attr {
    key: "use_locking"
    value {
      b: true
    }
  }
  attr {
    key: "validate_shape"
    value {
      b: true
    }
  }
}
node {
  name: "save_3/RestoreV2_15/tensor_names"
  op: "Const"
  attr {
    key: "dtype"
    value {
      type: DT_STRING
    }
  }
  attr {
    key: "value"
    value {
      tensor {
        dtype: DT_STRING
        tensor_shape {
          dim {
            size: 1
          }
        }
        string_val: "FullyConnected_1/b/Adam_1"
      }
    }
  }
}
node {
  name: "save_3/RestoreV2_15/shape_and_slices"
  op: "Const"
  attr {
    key: "dtype"
    value {
      type: DT_STRING
    }
  }
  attr {
    key: "value"
    value {
      tensor {
        dtype: DT_STRING
        tensor_shape {
          dim {
            size: 1
          }
        }
        string_val: ""
      }
    }
  }
}
node {
  name: "save_3/RestoreV2_15"
  op: "RestoreV2"
  input: "save_3/Const"
  input: "save_3/RestoreV2_15/tensor_names"
  input: "save_3/RestoreV2_15/shape_and_slices"
  attr {
    key: "dtypes"
    value {
      list {
        type: DT_FLOAT
      }
    }
  }
}
node {
  name: "save_3/Assign_15"
  op: "Assign"
  input: "FullyConnected_1/b/Adam_1"
  input: "save_3/RestoreV2_15"
  attr {
    key: "T"
    value {
      type: DT_FLOAT
    }
  }
  attr {
    key: "_class"
    value {
      list {
        s: "loc:@FullyConnected_1/b"
      }
    }
  }
  attr {
    key: "use_locking"
    value {
      b: true
    }
  }
  attr {
    key: "validate_shape"
    value {
      b: true
    }
  }
}
node {
  name: "save_3/RestoreV2_16/tensor_names"
  op: "Const"
  attr {
    key: "dtype"
    value {
      type: DT_STRING
    }
  }
  attr {
    key: "value"
    value {
      tensor {
        dtype: DT_STRING
        tensor_shape {
          dim {
            size: 1
          }
        }
        string_val: "FullyConnected_2/W"
      }
    }
  }
}
node {
  name: "save_3/RestoreV2_16/shape_and_slices"
  op: "Const"
  attr {
    key: "dtype"
    value {
      type: DT_STRING
    }
  }
  attr {
    key: "value"
    value {
      tensor {
        dtype: DT_STRING
        tensor_shape {
          dim {
            size: 1
          }
        }
        string_val: ""
      }
    }
  }
}
node {
  name: "save_3/RestoreV2_16"
  op: "RestoreV2"
  input: "save_3/Const"
  input: "save_3/RestoreV2_16/tensor_names"
  input: "save_3/RestoreV2_16/shape_and_slices"
  attr {
    key: "dtypes"
    value {
      list {
        type: DT_FLOAT
      }
    }
  }
}
node {
  name: "save_3/Assign_16"
  op: "Assign"
  input: "FullyConnected_2/W"
  input: "save_3/RestoreV2_16"
  attr {
    key: "T"
    value {
      type: DT_FLOAT
    }
  }
  attr {
    key: "_class"
    value {
      list {
        s: "loc:@FullyConnected_2/W"
      }
    }
  }
  attr {
    key: "use_locking"
    value {
      b: true
    }
  }
  attr {
    key: "validate_shape"
    value {
      b: true
    }
  }
}
node {
  name: "save_3/RestoreV2_17/tensor_names"
  op: "Const"
  attr {
    key: "dtype"
    value {
      type: DT_STRING
    }
  }
  attr {
    key: "value"
    value {
      tensor {
        dtype: DT_STRING
        tensor_shape {
          dim {
            size: 1
          }
        }
        string_val: "FullyConnected_2/W/Adam"
      }
    }
  }
}
node {
  name: "save_3/RestoreV2_17/shape_and_slices"
  op: "Const"
  attr {
    key: "dtype"
    value {
      type: DT_STRING
    }
  }
  attr {
    key: "value"
    value {
      tensor {
        dtype: DT_STRING
        tensor_shape {
          dim {
            size: 1
          }
        }
        string_val: ""
      }
    }
  }
}
node {
  name: "save_3/RestoreV2_17"
  op: "RestoreV2"
  input: "save_3/Const"
  input: "save_3/RestoreV2_17/tensor_names"
  input: "save_3/RestoreV2_17/shape_and_slices"
  attr {
    key: "dtypes"
    value {
      list {
        type: DT_FLOAT
      }
    }
  }
}
node {
  name: "save_3/Assign_17"
  op: "Assign"
  input: "FullyConnected_2/W/Adam"
  input: "save_3/RestoreV2_17"
  attr {
    key: "T"
    value {
      type: DT_FLOAT
    }
  }
  attr {
    key: "_class"
    value {
      list {
        s: "loc:@FullyConnected_2/W"
      }
    }
  }
  attr {
    key: "use_locking"
    value {
      b: true
    }
  }
  attr {
    key: "validate_shape"
    value {
      b: true
    }
  }
}
node {
  name: "save_3/RestoreV2_18/tensor_names"
  op: "Const"
  attr {
    key: "dtype"
    value {
      type: DT_STRING
    }
  }
  attr {
    key: "value"
    value {
      tensor {
        dtype: DT_STRING
        tensor_shape {
          dim {
            size: 1
          }
        }
        string_val: "FullyConnected_2/W/Adam_1"
      }
    }
  }
}
node {
  name: "save_3/RestoreV2_18/shape_and_slices"
  op: "Const"
  attr {
    key: "dtype"
    value {
      type: DT_STRING
    }
  }
  attr {
    key: "value"
    value {
      tensor {
        dtype: DT_STRING
        tensor_shape {
          dim {
            size: 1
          }
        }
        string_val: ""
      }
    }
  }
}
node {
  name: "save_3/RestoreV2_18"
  op: "RestoreV2"
  input: "save_3/Const"
  input: "save_3/RestoreV2_18/tensor_names"
  input: "save_3/RestoreV2_18/shape_and_slices"
  attr {
    key: "dtypes"
    value {
      list {
        type: DT_FLOAT
      }
    }
  }
}
node {
  name: "save_3/Assign_18"
  op: "Assign"
  input: "FullyConnected_2/W/Adam_1"
  input: "save_3/RestoreV2_18"
  attr {
    key: "T"
    value {
      type: DT_FLOAT
    }
  }
  attr {
    key: "_class"
    value {
      list {
        s: "loc:@FullyConnected_2/W"
      }
    }
  }
  attr {
    key: "use_locking"
    value {
      b: true
    }
  }
  attr {
    key: "validate_shape"
    value {
      b: true
    }
  }
}
node {
  name: "save_3/RestoreV2_19/tensor_names"
  op: "Const"
  attr {
    key: "dtype"
    value {
      type: DT_STRING
    }
  }
  attr {
    key: "value"
    value {
      tensor {
        dtype: DT_STRING
        tensor_shape {
          dim {
            size: 1
          }
        }
        string_val: "FullyConnected_2/b"
      }
    }
  }
}
node {
  name: "save_3/RestoreV2_19/shape_and_slices"
  op: "Const"
  attr {
    key: "dtype"
    value {
      type: DT_STRING
    }
  }
  attr {
    key: "value"
    value {
      tensor {
        dtype: DT_STRING
        tensor_shape {
          dim {
            size: 1
          }
        }
        string_val: ""
      }
    }
  }
}
node {
  name: "save_3/RestoreV2_19"
  op: "RestoreV2"
  input: "save_3/Const"
  input: "save_3/RestoreV2_19/tensor_names"
  input: "save_3/RestoreV2_19/shape_and_slices"
  attr {
    key: "dtypes"
    value {
      list {
        type: DT_FLOAT
      }
    }
  }
}
node {
  name: "save_3/Assign_19"
  op: "Assign"
  input: "FullyConnected_2/b"
  input: "save_3/RestoreV2_19"
  attr {
    key: "T"
    value {
      type: DT_FLOAT
    }
  }
  attr {
    key: "_class"
    value {
      list {
        s: "loc:@FullyConnected_2/b"
      }
    }
  }
  attr {
    key: "use_locking"
    value {
      b: true
    }
  }
  attr {
    key: "validate_shape"
    value {
      b: true
    }
  }
}
node {
  name: "save_3/RestoreV2_20/tensor_names"
  op: "Const"
  attr {
    key: "dtype"
    value {
      type: DT_STRING
    }
  }
  attr {
    key: "value"
    value {
      tensor {
        dtype: DT_STRING
        tensor_shape {
          dim {
            size: 1
          }
        }
        string_val: "FullyConnected_2/b/Adam"
      }
    }
  }
}
node {
  name: "save_3/RestoreV2_20/shape_and_slices"
  op: "Const"
  attr {
    key: "dtype"
    value {
      type: DT_STRING
    }
  }
  attr {
    key: "value"
    value {
      tensor {
        dtype: DT_STRING
        tensor_shape {
          dim {
            size: 1
          }
        }
        string_val: ""
      }
    }
  }
}
node {
  name: "save_3/RestoreV2_20"
  op: "RestoreV2"
  input: "save_3/Const"
  input: "save_3/RestoreV2_20/tensor_names"
  input: "save_3/RestoreV2_20/shape_and_slices"
  attr {
    key: "dtypes"
    value {
      list {
        type: DT_FLOAT
      }
    }
  }
}
node {
  name: "save_3/Assign_20"
  op: "Assign"
  input: "FullyConnected_2/b/Adam"
  input: "save_3/RestoreV2_20"
  attr {
    key: "T"
    value {
      type: DT_FLOAT
    }
  }
  attr {
    key: "_class"
    value {
      list {
        s: "loc:@FullyConnected_2/b"
      }
    }
  }
  attr {
    key: "use_locking"
    value {
      b: true
    }
  }
  attr {
    key: "validate_shape"
    value {
      b: true
    }
  }
}
node {
  name: "save_3/RestoreV2_21/tensor_names"
  op: "Const"
  attr {
    key: "dtype"
    value {
      type: DT_STRING
    }
  }
  attr {
    key: "value"
    value {
      tensor {
        dtype: DT_STRING
        tensor_shape {
          dim {
            size: 1
          }
        }
        string_val: "FullyConnected_2/b/Adam_1"
      }
    }
  }
}
node {
  name: "save_3/RestoreV2_21/shape_and_slices"
  op: "Const"
  attr {
    key: "dtype"
    value {
      type: DT_STRING
    }
  }
  attr {
    key: "value"
    value {
      tensor {
        dtype: DT_STRING
        tensor_shape {
          dim {
            size: 1
          }
        }
        string_val: ""
      }
    }
  }
}
node {
  name: "save_3/RestoreV2_21"
  op: "RestoreV2"
  input: "save_3/Const"
  input: "save_3/RestoreV2_21/tensor_names"
  input: "save_3/RestoreV2_21/shape_and_slices"
  attr {
    key: "dtypes"
    value {
      list {
        type: DT_FLOAT
      }
    }
  }
}
node {
  name: "save_3/Assign_21"
  op: "Assign"
  input: "FullyConnected_2/b/Adam_1"
  input: "save_3/RestoreV2_21"
  attr {
    key: "T"
    value {
      type: DT_FLOAT
    }
  }
  attr {
    key: "_class"
    value {
      list {
        s: "loc:@FullyConnected_2/b"
      }
    }
  }
  attr {
    key: "use_locking"
    value {
      b: true
    }
  }
  attr {
    key: "validate_shape"
    value {
      b: true
    }
  }
}
node {
  name: "save_3/RestoreV2_22/tensor_names"
  op: "Const"
  attr {
    key: "dtype"
    value {
      type: DT_STRING
    }
  }
  attr {
    key: "value"
    value {
      tensor {
        dtype: DT_STRING
        tensor_shape {
          dim {
            size: 1
          }
        }
        string_val: "Global_Step"
      }
    }
  }
}
node {
  name: "save_3/RestoreV2_22/shape_and_slices"
  op: "Const"
  attr {
    key: "dtype"
    value {
      type: DT_STRING
    }
  }
  attr {
    key: "value"
    value {
      tensor {
        dtype: DT_STRING
        tensor_shape {
          dim {
            size: 1
          }
        }
        string_val: ""
      }
    }
  }
}
node {
  name: "save_3/RestoreV2_22"
  op: "RestoreV2"
  input: "save_3/Const"
  input: "save_3/RestoreV2_22/tensor_names"
  input: "save_3/RestoreV2_22/shape_and_slices"
  attr {
    key: "dtypes"
    value {
      list {
        type: DT_FLOAT
      }
    }
  }
}
node {
  name: "save_3/Assign_22"
  op: "Assign"
  input: "Global_Step"
  input: "save_3/RestoreV2_22"
  attr {
    key: "T"
    value {
      type: DT_FLOAT
    }
  }
  attr {
    key: "_class"
    value {
      list {
        s: "loc:@Global_Step"
      }
    }
  }
  attr {
    key: "use_locking"
    value {
      b: true
    }
  }
  attr {
    key: "validate_shape"
    value {
      b: true
    }
  }
}
node {
  name: "save_3/RestoreV2_23/tensor_names"
  op: "Const"
  attr {
    key: "dtype"
    value {
      type: DT_STRING
    }
  }
  attr {
    key: "value"
    value {
      tensor {
        dtype: DT_STRING
        tensor_shape {
          dim {
            size: 1
          }
        }
        string_val: "Training_step"
      }
    }
  }
}
node {
  name: "save_3/RestoreV2_23/shape_and_slices"
  op: "Const"
  attr {
    key: "dtype"
    value {
      type: DT_STRING
    }
  }
  attr {
    key: "value"
    value {
      tensor {
        dtype: DT_STRING
        tensor_shape {
          dim {
            size: 1
          }
        }
        string_val: ""
      }
    }
  }
}
node {
  name: "save_3/RestoreV2_23"
  op: "RestoreV2"
  input: "save_3/Const"
  input: "save_3/RestoreV2_23/tensor_names"
  input: "save_3/RestoreV2_23/shape_and_slices"
  attr {
    key: "dtypes"
    value {
      list {
        type: DT_FLOAT
      }
    }
  }
}
node {
  name: "save_3/Assign_23"
  op: "Assign"
  input: "Training_step"
  input: "save_3/RestoreV2_23"
  attr {
    key: "T"
    value {
      type: DT_FLOAT
    }
  }
  attr {
    key: "_class"
    value {
      list {
        s: "loc:@Training_step"
      }
    }
  }
  attr {
    key: "use_locking"
    value {
      b: true
    }
  }
  attr {
    key: "validate_shape"
    value {
      b: true
    }
  }
}
node {
  name: "save_3/RestoreV2_24/tensor_names"
  op: "Const"
  attr {
    key: "dtype"
    value {
      type: DT_STRING
    }
  }
  attr {
    key: "value"
    value {
      tensor {
        dtype: DT_STRING
        tensor_shape {
          dim {
            size: 1
          }
        }
        string_val: "is_training"
      }
    }
  }
}
node {
  name: "save_3/RestoreV2_24/shape_and_slices"
  op: "Const"
  attr {
    key: "dtype"
    value {
      type: DT_STRING
    }
  }
  attr {
    key: "value"
    value {
      tensor {
        dtype: DT_STRING
        tensor_shape {
          dim {
            size: 1
          }
        }
        string_val: ""
      }
    }
  }
}
node {
  name: "save_3/RestoreV2_24"
  op: "RestoreV2"
  input: "save_3/Const"
  input: "save_3/RestoreV2_24/tensor_names"
  input: "save_3/RestoreV2_24/shape_and_slices"
  attr {
    key: "dtypes"
    value {
      list {
        type: DT_BOOL
      }
    }
  }
}
node {
  name: "save_3/Assign_24"
  op: "Assign"
  input: "is_training"
  input: "save_3/RestoreV2_24"
  attr {
    key: "T"
    value {
      type: DT_BOOL
    }
  }
  attr {
    key: "_class"
    value {
      list {
        s: "loc:@is_training"
      }
    }
  }
  attr {
    key: "use_locking"
    value {
      b: true
    }
  }
  attr {
    key: "validate_shape"
    value {
      b: true
    }
  }
}
node {
  name: "save_3/RestoreV2_25/tensor_names"
  op: "Const"
  attr {
    key: "dtype"
    value {
      type: DT_STRING
    }
  }
  attr {
    key: "value"
    value {
      tensor {
        dtype: DT_STRING
        tensor_shape {
          dim {
            size: 1
          }
        }
        string_val: "val_acc"
      }
    }
  }
}
node {
  name: "save_3/RestoreV2_25/shape_and_slices"
  op: "Const"
  attr {
    key: "dtype"
    value {
      type: DT_STRING
    }
  }
  attr {
    key: "value"
    value {
      tensor {
        dtype: DT_STRING
        tensor_shape {
          dim {
            size: 1
          }
        }
        string_val: ""
      }
    }
  }
}
node {
  name: "save_3/RestoreV2_25"
  op: "RestoreV2"
  input: "save_3/Const"
  input: "save_3/RestoreV2_25/tensor_names"
  input: "save_3/RestoreV2_25/shape_and_slices"
  attr {
    key: "dtypes"
    value {
      list {
        type: DT_FLOAT
      }
    }
  }
}
node {
  name: "save_3/Assign_25"
  op: "Assign"
  input: "val_acc"
  input: "save_3/RestoreV2_25"
  attr {
    key: "T"
    value {
      type: DT_FLOAT
    }
  }
  attr {
    key: "_class"
    value {
      list {
        s: "loc:@val_acc"
      }
    }
  }
  attr {
    key: "use_locking"
    value {
      b: true
    }
  }
  attr {
    key: "validate_shape"
    value {
      b: true
    }
  }
}
node {
  name: "save_3/RestoreV2_26/tensor_names"
  op: "Const"
  attr {
    key: "dtype"
    value {
      type: DT_STRING
    }
  }
  attr {
    key: "value"
    value {
      tensor {
        dtype: DT_STRING
        tensor_shape {
          dim {
            size: 1
          }
        }
        string_val: "val_loss"
      }
    }
  }
}
node {
  name: "save_3/RestoreV2_26/shape_and_slices"
  op: "Const"
  attr {
    key: "dtype"
    value {
      type: DT_STRING
    }
  }
  attr {
    key: "value"
    value {
      tensor {
        dtype: DT_STRING
        tensor_shape {
          dim {
            size: 1
          }
        }
        string_val: ""
      }
    }
  }
}
node {
  name: "save_3/RestoreV2_26"
  op: "RestoreV2"
  input: "save_3/Const"
  input: "save_3/RestoreV2_26/tensor_names"
  input: "save_3/RestoreV2_26/shape_and_slices"
  attr {
    key: "dtypes"
    value {
      list {
        type: DT_FLOAT
      }
    }
  }
}
node {
  name: "save_3/Assign_26"
  op: "Assign"
  input: "val_loss"
  input: "save_3/RestoreV2_26"
  attr {
    key: "T"
    value {
      type: DT_FLOAT
    }
  }
  attr {
    key: "_class"
    value {
      list {
        s: "loc:@val_loss"
      }
    }
  }
  attr {
    key: "use_locking"
    value {
      b: true
    }
  }
  attr {
    key: "validate_shape"
    value {
      b: true
    }
  }
}
node {
  name: "save_3/restore_all"
  op: "NoOp"
  input: "^save_3/Assign"
  input: "^save_3/Assign_1"
  input: "^save_3/Assign_2"
  input: "^save_3/Assign_3"
  input: "^save_3/Assign_4"
  input: "^save_3/Assign_5"
  input: "^save_3/Assign_6"
  input: "^save_3/Assign_7"
  input: "^save_3/Assign_8"
  input: "^save_3/Assign_9"
  input: "^save_3/Assign_10"
  input: "^save_3/Assign_11"
  input: "^save_3/Assign_12"
  input: "^save_3/Assign_13"
  input: "^save_3/Assign_14"
  input: "^save_3/Assign_15"
  input: "^save_3/Assign_16"
  input: "^save_3/Assign_17"
  input: "^save_3/Assign_18"
  input: "^save_3/Assign_19"
  input: "^save_3/Assign_20"
  input: "^save_3/Assign_21"
  input: "^save_3/Assign_22"
  input: "^save_3/Assign_23"
  input: "^save_3/Assign_24"
  input: "^save_3/Assign_25"
  input: "^save_3/Assign_26"
}
versions {
  producer: 24
}
